Project_2/Code/Games/dqn_model.pth (torch, 705684 bytes, 9 tensors)

fc1.weight f4 [512, 20]
-0.062151432 -0.13944988 -0.15938596 -0.078118846 0.037911393 0.030943774 0.2115692 -0.035928503
0.052563664 -0.12707984 -0.16176054 -0.1041093 -0.16325408 -0.11843272 0.20054942 0.13177148
0.07825486 0.0551112 0.030743957 0.20644444 -0.018549543 0.012913489 0.19468766 -0.17349847
-0.06592757 -0.18931635 -0.068915516 0.12191596 0.035466123 -0.20471542 -0.08384055 0.057653278
0.14260104 0.17726669 0.18688446 0.07393187 0.055881303 0.18466109 0.027629942 -0.14116356
0.02468005 0.16284707 0.04274366 0.19562605 0.04986455 -0.13566436 -0.12434949 0.04067885
0.033622213 -0.016526744 -0.03668861 0.03397572 0.1299611 0.054555923 -0.021706462 -0.013592809
-0.050815847 -0.19976462 -0.06311345 0.14629799 -0.049615785 -0.18420562 0.23505676 0.0043620914
-0.06819305 0.21553281 -0.16881987 0.025061281 0.1260407 0.17543274 0.0958443 0.14815322
-0.11489227 -0.037433997 0.12781274 -0.0030975044 0.19550496 -0.03326121 -0.19346197 0.09917647
-0.14896548 0.07726232 0.18321489 -0.22290316 -0.049447987 -0.010379662 0.17256089 -0.09752939
-0.20228517 -0.081439644 0.04586318 -0.13210982 0.08005795 0.15836698 -0.0365026 0.094500035
0.06961833 -0.05950898 -0.05760798 -0.029498845 0.09059102 0.15110895 -0.025225945 -0.20847282
0.1732124 0.05004533 -0.01234949 0.056920048 0.0024210438 -0.01513277 0.17217785 0.1690875
0.15354997 -0.0797002 0.17472515 -0.063717484 -0.07755485 0.08056617 -0.008456945 -0.1738371
0.006445141 0.06448268 0.021096887 -0.20345086 -0.10715954 -0.017396329 -0.17062335 0.16524048
-0.11243653 -0.17372447 0.016618535 -0.16017237 0.04488042 -0.06487696 0.2075302 0.16617268
-0.13250427 0.20302132 -0.14273098 -0.07232599 -0.08658852 0.015242204 0.052384377 0.16172415
-0.112095065 0.078187466 -0.17700988 -0.19128191 -0.14717056 -0.079125 -0.18865705 0.12997282
-0.005158335 0.13411099 0.1862393 -0.17281644 -0.020262375 -0.024906993 -0.082589805 0.18407649
-0.0031359035 0.0021590213 0.21801 0.21500939 0.24129272 -0.20248175 -0.1720383 0.0051738787
0.12822843 0.06984052 0.1119777 0.04305139 -0.09407884 -0.0036295652 0.12177506 0.13488656
0.15291202 -0.09955152 0.1964505 0.1789479 -0.0470387 -0.16908087 0.05814108 0.023631379
0.09842397 0.16981332 0.16510972 0.17452388 0.11412997 -0.1719242 0.09958249 0.07371801
0.08327228 -0.06669815 0.07855967 -0.0460442 -0.107491136 -0.20730981 0.14472926 -0.13949081
-0.041196786 -0.10915225 0.031822585 -0.002916349 0.2081384 -0.19922684 -0.10336037 0.09902145
-0.15668076 -0.009912923 0.07808298 -0.024488792 0.166287 0.06168863 -0.20141548 -0.025253981
-0.012094281 -0.1119547 0.10934925 -0.14984894 -0.09355877 0.18264973 0.1189763 0.10603471
-0.0015299469 0.204929 0.0007772232 -0.23081961 -0.11035637 -0.021174148 0.03848186 0.09795958
0.07482675 -0.12634087 0.051930606 0.048558623 0.06985271 0.0987069 -0.0070531815 0.2007806
0.025877947 -0.17336379 0.10581625 0.203912 0.061109852 0.11236966 -0.10743344 -0.15123543
0.21844848 -0.09481853 -0.12947938 -0.15103754 0.13578326 -0.20792499 -0.16836323 0.06852946
00000000: 8092 7ebd f3cb 0ebe 1336 23be c6fc 9fbd
00000010: fa48 1b3d cc7d fd3c 99a5 583e c429 13bd
00000020: ff4c 573d 3821 02be 8ea4 25be 4237 d5bd
00000030: 142c 27be db8c f2bd d45c 4d3e 1aef 063e
00000040: 1644 a03d 48bc 613d c0da fb3c 2c66 533e
00000050: 36f5 97bc 1993 533c 345c 473e 95a9 31be
00000060: 0905 87bd 25dc 41be 9423 8dbd 13af f93d
00000070: ed44 113d eba0 51be 98b4 abbd d825 6c3d
00000080: 0206 123e 6685 353e a45e 3f3e 9869 973d
00000090: cbe3 643d cc17 3d3e 3058 e23c 2e8d 10be
000000a0: d12d ca3c 62c1 263e fa13 2f3d 3252 483e
000000b0: c53e 4c3d 99eb 0abe f2aa febd de9e 263d
000000c0: 72b7 093d 1863 87bc cc46 16bd 202a 0b3d
000000d0: 8614 053e 0876 5f3d c0d1 b1bc 60b4 5ebc
000000e0: 4724 50bd 198f 4cbe a041 81bd 24cf 153e
000000f0: ec39 4bbd 66a0 3cbe b8b2 703e e0ef 8e3b
00000100: cca8 8bbd a2b4 5c3e 1edf 2cbe 514d cd3c
00000110: d010 013e a4a4 333e 044a c43d 7ab5 173e
00000120: a34c ebbd 6454 19bd 58e1 023e 80ff 4abb
00000130: 7432 483e e83c 08bd e51a 46be 081d cb3d
00000140: 688a 18be b53b 9e3d af9c 3b3e ba40 64be
00000150: f989 4abd 750f 2abc cdb3 303e 7dbd c7bd
00000160: d823 4fbe d4c9 a6bd 08db 3b3d cc47 07be
00000170: 6cf5 a33d f42a 223e c083 15bd 3c89 c13d
00000180: 0e94 8e3d b0bf 73bd 58f6 6bbd 90a7 f1bc
00000190: c987 b93d 4ebc 1a3e a4a6 cebc e679 55be
000001a0: 975e 313e 55fc 4c3d 8455 4abc ff24 693d
000001b0: 60aa 1e3b 70ef 77bc 644f 303e 4625 2d3e
000001c0: 343c 1d3e dc39 a3bd 26eb 323e 507e 82bd
000001d0: 14d5 9ebd e0ff a43d 008f 0abc 5a02 32be
000001e0: c331 d33b 7f0f 843d 61d3 ac3c 6c55 50be
000001f0: 7676 dbbd bf82 8ebc e3b7 2ebe cd34 293e
00000200: 2045 e6bd d4e4 31be 9823 883c 3a04 24be
00000210: 88d4 373d 36de 84bd cc82 543e 2c29 2a3e
00000220: 33af 07be d2e4 4f3e 1228 12be a61f 94bd
00000230: 5255 b1bd 70ba 793c 0091 563d 049b 253e
00000240: 1992 e5bd c020 a03d 1442 35be 68df 43be
00000250: e1b3 16be 4a0c a2bd 502f 41be 9817 053e
00000260: 4007 a9bb 6454 093e 84b5 3e3e cbf6 30be
00000270: 48fd a5bc c009 ccbc d824 a9bd 8c7e 3c3e
00000280: bb83 4dbb 5e7e 0d3b 033e 5f3e 6c2b 5c3e
00000290: 7015 773e 6057 4fbe cf2a 30be a489 a93b
000002a0: 504e 033e 8c08 8f3d 9054 e53d a856 303d
000002b0: 68ac c0bd 00de 6dbb 3465 f93d b41f 0a3e
000002c0: f894 1c3e abe1 cbbd 522a 493e 1e3e 373e
000002d0: a7ab 40bd 8923 2dbe 5725 6e3d 9896 c13c
000002e0: 8292 c93d 8be3 2d3e 8612 293e 63b6 323e
000002f0: f9bc e93d e60c 30be e8f1 cb3d 78f9 963d
00000300: a88a aa3d 0a99 88bd e4e3 a03d d898 3cbd
00000310: 5024 dcbd 0649 54be e833 143e aed6 0ebe
00000320: f6bd 28bd 378b dfbd 6658 023d 3820 3fbb
00000330: 3c22 553e 1f02 4cbe 9aae d3bd c2cb ca3d
00000340: ec70 20be d069 22bc f8e9 9f3d b89c c8bc
00000350: 2447 2a3e 38ad 7c3d dc3f 4ebe 70e1 cebc
00000360: 1727 46bc 8148 e5bd 80f2 df3d 0072 19be
00000370: be9b bfbd 8808 3b3e d9a9 f33d ba28 d93d
00000380: 8088 c8ba e8d8 513e 91be 4b3a fa5b 6cbe
00000390: 8502 e2bd 6875 adbc 289f 1d3d 089f c83d
000003a0: c43e 993d 805f 01be 30b5 543d 68e5 463d
000003b0: f00e 8f3d d826 ca3d 601e e7bb 6e99 4d3e
000003c0: fdfd d33c 4786 31be 31b6 d83d 4fce 503e
000003d0: 534e 7a3d 1022 e63d 1006 dcbd 76dd 1abe
000003e0: f5b0 5f3e 3830 c2bd 3e96 04be 96a9 1abe
000003f0: c40a 0b3e 4aea 54be 6967 2cbe 2c59 8c3d

fc1.bias f4 [512]
0.112853244 0.13607387 -0.12390672 -0.034769583 0.20498343 -0.05257734 0.0011214665 -0.18495737
-0.023996333 -0.15225479 0.07592178 -0.07078645 0.038854707 0.0265312 -0.09736275 0.12559721
-0.10980417 0.16513109 0.22371098 0.07340824 -0.017873287 -0.16356489 0.17926337 -0.036528885
-0.14994764 0.15693699 0.059214126 -0.12816976 -0.2030922 0.12937444 -0.06050113 0.042486183
-0.09532496 -0.044688407 -0.0067191105 -0.106063366 0.06193246 -0.060579777 0.11172853 0.049408033
-0.03770322 -0.10975487 -0.1578323 -0.0534166 0.0045407135 -0.018418811 -0.123919636 0.05140676
0.088143215 0.102216035 0.10180147 -0.121964425 -0.08949262 0.017193325 0.10939892 -0.10253606
-0.0079846755 -0.057066277 0.17834638 0.13202319 0.15252855 -0.046731293 0.025301838 -0.016176384
-0.014911275 0.11721017 0.17281704 0.05172201 -0.16410102 0.10871377 0.08350184 -0.096407376
0.18591626 0.1155906 -0.09532612 0.21571997 0.08756293 0.12046977 0.10622002 -0.060607675
0.13140252 -0.21398981 -0.18286522 0.02072561 -0.10118061 -0.13581845 -0.02505289 0.054992437
0.0010036145 0.13956769 -0.19115351 -0.095920235 -0.21055184 0.006384776 -0.19185592 -0.19570436
-0.08205047 -0.07947703 -0.12555575 0.113905706 -0.12953627 -0.061159596 0.085537575 -0.18884163
0.18144536 -0.106476724 0.20887664 -0.08058508 -0.05166589 0.1080458 -0.17859948 0.20322023
0.088562764 -0.22038981 0.1479538 -0.20332848 -0.11343383 0.095650844 0.19270764 -0.13396516
0.01161015 0.045941737 0.20945412 0.024467446 -0.029447805 -0.01975407 -0.1552186 0.17210412
-0.07873832 -0.04520552 0.19312088 -0.112701304 -0.16590704 0.03376115 0.06111095 0.11635395
0.109555975 0.1534657 -0.08902309 0.04908623 0.20593801 0.13703361 -0.13827649 -0.094805375
-0.078397565 0.12162598 0.034658752 -0.023678098 0.07464737 -0.105863295 0.015033696 0.20704553
-0.020133734 -0.068318486 0.17067729 -0.09056699 -0.052678794 -0.06576494 0.16143623 -0.057354376
0.0061393157 -0.16363268 0.07342564 0.016310077 -0.11905196 -0.04919411 0.185399 -0.021141976
-0.21803345 -0.07859744 0.029177161 0.195532 0.1828689 -0.20952064 -0.10779057 -0.091566056
-0.018552184 -0.019639889 0.01592749 0.195726 -0.10652231 -0.0057679703 0.2208104 0.03716742
-0.18764526 0.11666715 0.029360723 -0.054399725 -0.18022753 0.16930054 -0.07033707 -0.06172579
-0.07626064 0.028172899 0.18246162 -0.02863914 0.0751758 -0.095899686 -0.17900918 0.17694502
-0.17487259 -0.15229177 -0.016941749 0.08267348 0.17300215 0.014267981 -0.16030443 0.0284795
-0.0890653 -0.18746158 -0.057759017 0.1167786 -0.04507621 -0.1416439 0.12581821 -0.21655306
-0.03198764 0.20135832 -0.17865954 0.049910937 -0.05251304 -0.19555214 0.06755498 -0.10561507
-0.074691355 0.16563803 -0.20922564 0.15678214 -0.10450266 -0.13346265 0.14144436 -0.10254325
-0.12780708 0.09813556 0.055457126 -0.15565723 0.1398652 -0.017805556 -0.2158706 0.0058027026
-0.120544516 -0.1357949 -0.114952974 0.045289304 -0.046176434 -0.16786012 -0.1579451 -0.16263975
0.062561646 -0.16517942 0.08963842 -0.22115493 -0.1159725 -0.13713694 -0.17069188 -0.20902418
00000000: 9a1f e73d f356 0b3e cec2 fdbd 8d6a 0ebd
00000010: 2de7 513e 565b 57bd 2cfe 923a 7765 3dbe
00000020: f593 c4bc aee8 1bbe e17c 9b3d 7cf8 90bd
00000030: 1d26 1f3d f657 d93c 1f66 c7bd 8e9c 003e
00000040: 02e1 e0bd 2018 293e 7e14 653e 0f57 963d
00000050: 006b 92bc 8e7d 27be d190 373e 509f 15bd
00000060: e08b 19be 17b4 203e 838a 723d ef3e 03be
00000070: 67f7 4fbe bc7a 043e 08d0 77bd fe05 2e3d
00000080: bc39 c3bd 310b 37bd fc2b dcbb c037 d9bd
00000090: e4ac 7d3d 8022 78bd edd1 e43d 1460 4a3d
000000a0: b16e 1abd 29c7 e0bd ca9e 21be 5dcb 5abd
000000b0: 44ca 943b 0ce3 96bc 94c9 fdbd e58f 523d
000000c0: 6e84 b43d a456 d13d 4a7d d03d 7cc8 f9bd
000000d0: e847 b7bd 04d9 8c3c 8a0c e03d 6dfe d1bd
000000e0: 28d2 02bc 54be 69bd 6fa0 363e 1631 073e
000000f0: 7230 1c3e 5069 3fbd cd45 cf3c 5684 84bc
00000100: 6c4e 74bc e30b f03d f3f6 303e 75da 533d
00000110: 190a 28be 53a5 de3d 0303 ab3d 3b71 c5bd
00000120: d560 3e3e c4ba ec3d 573a c3bd b2e5 5c3e
00000130: 3254 b33d dbb8 f63d e289 d93d c13f 78bd
00000140: 628e 063e 2520 5bbe 0541 3bbe c1c8 a93c
00000150: c837 cfbd fe13 0bbe b83b cdbc c03f 613d
00000160: b78b 833a d5ea 0e3e bfbd 43be d471 c4bd
00000170: e79a 57be 6237 d13b e175 44be b966 48be
00000180: 140a a8bd dac4 a2bd b091 00be 6547 e93d
00000190: 28a5 04be 7c82 7abd 532e af3d b35f 41be
000001a0: d0cc 393e 7810 dabd c2e3 553e ca09 a5bd
000001b0: 9d9f 53bd 1e47 dd3d c8e2 36be f718 503e
000001c0: 6560 b53d dead 61be 3381 173e 5735 50be
000001d0: ff4f e8bd 97e4 c33d 2755 453e 2a2e 09be
000001e0: 8038 3e3c 672d 3c3d 247b 563e f46f c83c
000001f0: 863c f1bc 4ad3 a1bc a0f1 1ebe 103c 303e
00000200: 8e41 a1bd 6c29 39bd 7bc1 453e f1cf e6bd
00000210: 89e3 29be 2249 0a3d 7a4f 7a3d fb4a ee3d
00000220: e25e e03d 1d26 1d3e bd51 b6bd a50e 493d
00000230: 6ae1 523e 8a52 0c3e 5a98 0dbe 5229 c2bd
00000240: e78e a0bd 0b17 f93d 56f6 0d3d 92f8 c1bc
00000250: b8e0 983d dbce d8bd e44f 763c be03 543e
00000260: 80ef a4bc 90ea 8bbd 07c6 2e3e 307b b9bd
00000270: b8c5 57bd c5af 86bd 8a4f 253e 6cec 6abd
00000280: 502c c93b 538f 27be 2f60 963d b69c 853c
00000290: 84d1 f3bd c37f 49bd 3cd9 3d3e f031 adbc
000002a0: 2944 5fbe b2f7 a0bd f104 ef3c 8a39 483e
000002b0: fc41 3b3e 948c 56be 4dc1 dcbd fc86 bbbd
000002c0: c0fa 97bc d5e3 a0bc 5e7a 823c 666c 483e
000002d0: 5e28 dabd 3e01 bdbb 1f1c 623e dd3c 183d
000002e0: 1426 40be 30ef ee3d e685 f03c 3fd2 5ebd
000002f0: 918d 38be 1f5d 2d3e e20c 90bd 2fd4 7cbd
00000300: 8a2e 9cbd daca e63c 38d7 3a3e a19c eabc
00000310: c5f5 993d 0e67 c4bd 2f4e 37be 1331 353e
00000320: cd11 33be 60f2 1bbe 6cc9 8abc b750 a93d
00000330: 7a27 313e 40c4 693c d826 24be d74d e93c
00000340: de67 b6bd eef5 3fbe b894 6cbd 9e29 ef3d
00000350: d5a1 38bd 190b 11be 7dd6 003e 16c0 5dbe
00000360: 7905 03bd e030 4e3e 87f2 36be 696f 4c3d
00000370: ea17 57bd d23e 48be 445a 8a3d b74c d8bd
00000380: c8f7 98bd 049d 293e 3f3f 56be 7f8b 203e
00000390: 7e05 d6bd 6faa 08be cad6 103e 3202 d2bd
000003a0: dcdf 02be 4cfb c83d 0327 633d 9c64 1fbe
000003b0: d338 0f3e f5dc 91bc 2f0d 5dbe 9924 be3b
000003c0: 0be0 f6bd d10d 0bbe 776c ebbd 4781 393d
000003d0: 8023 3dbd 86e3 2bbe 5cbc 21be 098b 26be
000003e0: 5220 803d cb24 29be 5994 b73d 7076 62be
000003f0: fd82 edbd a06d 0cbe dac9 2ebe 6f0a 56be

fc2.weight f4 [256, 512]
0.026754547 -0.002232857 0.017954595 0.043052707 0.026803743 -0.029216655 -0.03064356 0.04397535
-0.0043099932 0.03642531 -0.005361758 0.03470483 0.008928519 -0.002829697 0.02103876 0.0011932887
-0.021492453 -0.029295236 0.0020856746 0.016911902 0.0017458275 -0.029373324 0.0070042647 0.0033369772
-0.036223445 -0.003539428 -0.011844277 -0.018073227 0.017408744 0.019358378 0.024761204 -0.016357481
-0.020730954 0.011966582 0.041342292 -0.025180992 0.015817411 0.008099381 -0.02433597 -0.013067046
0.003937613 -0.0040853843 0.021840747 -0.026551297 -0.02720253 0.03138617 -0.03386119 0.0001415722
0.034453895 -0.01593792 0.03239991 0.021284629 -0.022447336 0.04380982 -0.025073797 -0.0016774088
0.026141923 -0.0063177086 0.013732221 -0.008173466 -0.02646802 0.04196797 -0.017819598 0.01891758
-0.041224323 0.004399888 0.03596757 0.0041157044 -0.03585626 0.04339208 -0.022605035 0.008535158
0.027230356 -0.02310496 -0.015725058 0.041660946 -0.04357661 -0.035978667 0.021790776 -0.005873855
0.014606405 0.031310458 0.040730987 0.038997043 -0.042088795 0.035331715 0.01627098 0.030474473
-0.038419675 -0.04384515 -0.035799447 0.0085377805 -0.0046451204 -0.037268545 -0.0390362 0.0045204908
-0.009664524 0.01612921 -0.022323778 0.004907474 0.034067374 0.0028794147 -0.042056404 -0.021442352
0.043995563 -0.01334139 0.011728961 0.0036459714 0.026705045 0.0142327845 0.03342745 0.04326688
-0.012544304 -0.023523236 -0.010443419 -0.037010785 0.005524963 0.016639423 -0.010924526 -0.035515804
-0.012600437 0.034320805 -0.04303778 -0.0099203475 -0.02214446 -0.004980035 0.039474476 -0.02256304
0.020932045 0.040617976 -0.01059033 -0.015473045 -0.031631313 -0.013944237 -0.01819863 0.02016491
0.030623514 0.03195517 0.0072775185 -0.044089533 -0.026545333 -0.009676475 0.04353806 -0.020639079
0.037175108 0.043288525 -0.0306929 0.007854696 -0.041824304 -0.03817336 -0.02826251 -0.0001138635
0.0037648939 -0.020394307 -0.01785557 0.04228082 -0.0141382925 -0.013134038 0.029568624 -0.029662874
-0.0294302 -0.03618899 0.039959107 0.020589631 0.00047545508 -0.017715184 0.0035959445 -0.018666897
-0.023444854 -0.025983442 0.017175235 -0.01800829 0.03858905 0.0104205385 0.0035202615 -0.02723032
0.023275431 -0.04181853 0.039361525 0.033532728 -0.009160381 0.032162298 -0.0067189448 -0.019137815
-0.021379342 0.032070335 0.016314976 -0.0045048334 -0.04090597 -0.02148633 0.041217882 0.034913857
-0.04150539 -0.024651296 -0.012121566 0.011917513 -0.0064498857 -0.02780104 0.03011686 -0.0016088709
0.040786516 0.017167777 0.03835735 -0.008446928 0.03945035 -0.011370502 0.039421704 -0.032724395
-0.039287727 0.028086249 -0.03497274 0.04244976 0.031249236 0.0019128732 0.01729035 -0.03155173
0.040960234 -0.028450366 -0.03236249 0.0241254 -0.016194325 -0.026523469 -0.0060262233 0.013782695
0.024982449 -0.0059603713 0.02211478 -0.040421866 0.02846193 -0.029327467 -0.015547134 -0.012195263
-0.027944803 0.02594776 0.009644214 0.0335212 0.0009904839 0.01198037 -0.039592445 0.0159556
-0.03901768 -0.040252306 -0.042212144 -0.02627063 0.010759588 0.031704884 0.021274883 0.0077348575
-0.022671647 0.03460541 0.019307557 -0.012321848 0.032481376 -0.02293416 0.015689306 -0.023117725
00000000: 5a2c db3c 2055 12bb 8415 933c 0958 303d
00000010: 8693 db3c c457 efbc 3408 fbbc 7f1f 343d
00000020: d83a 8dbb b532 153d b0b1 afbb a726 0e3d
00000030: ec48 123c 7072 39bb 7a59 ac3c 2068 9c3a
00000040: f110 b0bc 90fc efbc d0af 083b d48a 8a3c
00000050: 40d4 e43a 53a0 f0bc 0884 e53b 30b1 5a3b
00000060: 095f 14bd c0f5 67bb 800e 42bc 4e0e 94bc
00000070: c89c 8e3c 7695 9e3c 02d8 ca3c 2000 86bc
00000080: f6d3 a9bc 7c0f 443c 8956 293d 5e48 cebc
00000090: 8493 813c 44b3 043c 3a5c c7bc 2a17 56bc
000000a0: 1807 813b b0de 85bb 5eeb b23c 1b82 d9bc
000000b0: d7d7 debc c98e 003d 08b2 0abd 0073 1439
000000c0: 871f 0d3d 3e90 82bc c5b5 043d 1a5d ae3c
000000d0: 7ae3 b7bc ed71 333d 9067 cdbc 80dc dbba
000000e0: 9627 d63c c804 cfbb 1cfd 603c 00ea 05bc
000000f0: 76d3 d8bc 9be6 2b3d 68fa 91bc 0af9 9a3c
00000100: d6da 28bd f02c 903b bb52 133d 08dd 863b
00000110: 04de 12bd e5bb 313d 322e b9bc 0cd7 0b3c
00000120: 3212 df3c 9d46 bdbc d6d1 80bc aba4 2a3d
00000130: 637d 32bd 5e5e 13bd 9282 b23c 7879 c0bb
00000140: b44f 6f3c 653f 003d 89d5 263d 5dbb 1f3d
00000150: 4d65 2cbd fdb7 103d b84a 853c 9aa5 f93c
00000160: f35d 1dbd f996 33bd 71a2 12bd 0ce2 0b3c
00000170: 1836 98bb e7a6 18bd 6ce4 1fbd a020 943b
00000180: f457 1ebc 6821 843c 5be0 b6bc e0ce a03b
00000190: 3b8a 0b3d 90b4 3c3b 5643 2cbd dfa7 afbc
000001a0: b134 343d d895 5abc d42a 403c 40f1 6e3b
000001b0: 8ac4 da3c a030 693c 39eb 083d 9d38 313d
000001c0: a086 4dbc cdb3 c0bc e01a 2bbc 9f98 17bd
000001d0: c00a b53b 664f 883c c8fc 32bc 0579 11bd
000001e0: 1072 4ebc f993 0c3d 6248 30bd f488 22bc
000001f0: 4c68 b5bc 902f a3bb fdaf 213d 20d6 b8bc
00000200: ae79 ab3c 095f 263d 1083 2dbc a882 7dbc
00000210: d68f 01bd 5e76 64bc 4b15 95bc e230 a53c
00000220: 2ade fa3c 6de3 023d 4078 ee3b 3a97 34bd
00000230: 9975 d9bc 148a 1ebc f754 323d 4913 a9bc
00000240: ed44 183d 4f4f 313d ad6f fbbc fcb0 003c
00000250: f64f 2bbd ab5b 1cbd c886 e7bc 00ca eeb8
00000260: 70bc 763b f611 a7bc d845 92bc a72e 2d3d
00000270: 4ca4 67bc 2630 57bc e639 f23c 8eff f2bc
00000280: 9a17 f1bc e83a 14bd 29ac 233d 96ab a83c
00000290: 8046 f939 6f1f 91bc f0a9 6b3b 52eb 98bc
000002a0: 6c0f c0bc 3adb d4bc 14b3 8c3c 1f86 93bc
000002b0: 8d0f 1e3d e8ba 2a3c 30b4 663b 1f12 dfbc
000002c0: 1eac be3c e849 2bbd 8d39 213d 9d59 093d
000002d0: 6c15 16bc 9dbc 033d 982a dcbb e8c6 9cbc
000002e0: bb23 afbc 2f5c 033d fca6 853c 489d 93bb
000002f0: 058d 27bd 1a04 b0bc 15d4 283d d501 0f3d
00000300: 8e01 2abd 84f1 c9bc 8899 46bc ac41 433c
00000310: 9059 d3bb 02bf e3bc a2b7 f63c c0e0 d2ba
00000320: c30f 273d 70a3 8c3c 991c 1d3d fc64 0abc
00000330: b196 213d 584b 3abc a778 213d 040a 06bd
00000340: 2bec 20bd 2215 e63c 933f 0fbd cddf 2d3d
00000350: 66fe ff3c 60b9 fa3a 7ea4 8d3c 633c 01bd
00000360: ebc5 273d be10 e9bc 888e 04bd a2a2 c53c
00000370: f6a9 84bc bf47 d9bc a077 c5bb d0d0 613c
00000380: fea7 cc3c 384f c3bb 0e2a b53c 6691 25bd
00000390: fe28 e93c 2840 f0bc 68b9 7ebc a4ce 47bc
000003a0: 80ec e4bc 6690 d43c c402 1e3c 874d 093d
000003b0: 20d3 813a 5049 443c b02b 22bd 52b5 823c
000003c0: 01d1 1fbd 9adf 24bd a4e6 2cbd 8135 d7bc
000003d0: fc48 303c fbdc 013d aa48 ae3c b074 fd3b
000003e0: e4b9 b9bc 67be 0d3d e22a 9e3c 94e1 49bc
000003f0: 310b 053d 6be0 bbbc dc86 803c 6261 bdbc

fc2.bias f4 [256]
-0.032889772 0.029600985 0.027721116 0.031664357 -0.03933658 0.02573537 -0.0065354705 -0.018156014
-0.01648792 -0.01093834 -0.0029591247 -0.010773566 0.00410061 0.027429713 0.029538943 -0.02440414
-0.036350343 0.00735924 -0.018311407 0.012394001 0.012346952 0.01645736 0.01852921 -0.013685065
-0.006191537 -0.0039130743 0.0118248155 -0.04521251 0.010127484 0.006177947 -0.03054355 -0.013657922
0.022542212 0.028619671 0.028566552 0.022611199 0.038857978 0.025817188 -0.006698757 -0.0020390488
-0.0017223044 -0.00026977833 0.002571017 -0.013908839 0.00869184 -0.007133486 -0.02768668 -0.011966281
-0.036642093 -0.02753442 -0.018377775 0.013140245 -0.03999696 0.024578301 -0.0015682331 0.03571209
0.016084144 0.040604625 -0.010488982 0.010880909 -0.01761479 -0.03682345 -0.031029074 0.006661932
0.042362325 0.020879505 -0.03645469 0.016948728 -0.034944776 0.022250315 0.04586969 -0.03692311
0.020231446 0.024812054 0.031519588 0.017812246 0.007325207 -0.027311807 0.0038640066 0.00076791644
0.023086013 0.018325629 -0.04465921 0.028599434 0.026030244 0.009306086 0.0067828028 -0.008128889
0.028259775 0.03923871 -0.04215875 -0.040942844 0.020467382 -0.046988435 -0.0028463467 -0.02116492
-0.025661267 0.032961342 0.019063566 -0.006582428 -0.023820635 -0.0107940715 -0.02071244 0.002025507
-0.02136068 0.03680064 0.0038949891 -0.02856641 -0.025140503 0.035137355 0.023212627 -0.042833947
-0.04056949 -0.02807518 -0.0018688482 0.019326685 -0.03769256 0.025589466 0.019254899 -0.040745694
0.012841121 0.009319293 0.011828929 -0.004718028 0.016980613 -0.00030414 -0.02022896 -0.024081867
0.0045945593 0.0054253526 -0.03438365 -0.028545128 -0.036533784 0.026930658 0.027029704 0.016038362
0.005387735 -0.037123118 0.023543343 0.019870022 0.008154178 0.018216101 -0.022632906 0.04059908
0.013494175 -0.015517396 0.0024271726 0.003641336 0.038871072 0.032123398 -0.028408034 0.007321421
-0.032732293 -0.032957483 0.010997318 -0.018736701 -0.020348083 0.013616798 -0.029947376 0.0038658497
0.010057149 0.022126328 0.04086464 -0.031827323 0.011893404 0.02332013 -0.029169485 -0.03865627
0.040065248 0.042727947 0.024098394 -0.026869569 0.03283625 0.01465301 -0.00939884 -0.03352473
0.037928797 -0.025360296 -0.026609434 -0.03704759 0.035841666 -0.0066161975 -0.009676442 -0.005465116
0.01672958 -0.037899658 0.023655899 -0.019873586 0.0076660854 -0.0065821023 0.040594436 0.037267048
0.0105095655 -0.023102093 0.023689564 -0.0018268712 0.0016152195 0.0259264 0.021930017 0.027578276
-0.023988284 0.039577644 -0.025174623 -0.0155565115 0.034274526 -0.022926947 0.040125977 -0.044797115
-0.024824008 -0.009754774 0.0069594877 0.031428985 0.016079966 -0.037952274 0.022572014 -0.036794867
-0.000725109 -0.007314408 0.020885725 -0.032499935 0.033373766 0.010897316 0.00035544214 -0.027452791
-0.042801548 -0.015752075 0.006658522 -0.043526005 0.023728032 -0.009618125 0.024668608 -0.03130257
0.02858858 -0.011840817 0.023911677 -0.027065527 -0.031916358 0.02242687 0.032300405 0.03201851
0.038564626 -0.036946803 -0.041233692 -0.04577393 -0.02364806 -0.005604258 -0.027595067 0.031265788
0.00896884 0.020695636 -0.0023518356 -0.04268707 0.02699786 -0.018305482 0.012981702 -0.026361488
00000000: 6db7 06bd c47d f23c 6517 e33c 7cb2 013d
00000010: 651f 21bd fcd2 d23c 8027 d6bb ecbb 94bc
00000020: ad11 87bc b936 33bc e0ed 41bb 9c83 30bc
00000030: 695e 863b 47b4 e03c a7fb f13c 31eb c7bc
00000040: 19e4 14bd c825 f13b ce01 96bc 3510 4b3c
00000050: df4a 4a3c 96d1 863c 92ca 973c 5337 60bc
00000060: 60e2 cabb 3f39 80bb dfbc 413c c130 39bd
00000070: bfed 253c 6070 ca3b 7836 fabc 7ac5 5fbc
00000080: 72aa b83c cd73 ea3c 6704 ea3c 1f3b b93c
00000090: 8b29 1f3d 917e d33c 3f81 dbbb 90a1 05bb
000000a0: f2be e1ba 0971 8db9 827e 283b e6e1 63bc
000000b0: 3868 0e3c 05c0 e9bb 2dcf e2bc 380e 44bc
000000c0: 0516 16bd dd8f e1bc fd8c 96bc 2f4a 573c
000000d0: dad3 23bd 6f58 c93c 2c8d cdba d746 123d
000000e0: e5c2 833c 0951 263d fbd9 2bbc d745 323c
000000f0: e44c 90bc 30d4 16bd af30 febc 564c da3b
00000100: 1e84 2d3d 7f0b ab3c 8351 15bd 0fd8 8a3c
00000110: 4122 0fbd 4b46 b63c dbe1 3b3d b03c 17bd
00000120: 6bbc a53c a642 cb3c af1a 013d fdea 913c
00000130: 4a08 f03b 03bd dfbc 463b 7d3b 004e 493a
00000140: e11e bd3c a11f 963c 93ec 36bd 5c49 ea3c
00000150: 613d d53c 8e78 183c 4642 de3b 082f 05bc
00000160: 0b81 e73c c5b8 203d a7ae 2cbd afb3 27bd
00000170: 36ab a73c f276 40bd c689 3abb 0e62 adbc
00000180: 9437 d2bc 7902 073d 322b 9c3c 68b1 d7bb
00000190: 7e23 c3bc 9ed9 30bc 23ad a9bc 5ebe 043b
000001a0: 98fc aebc 45bc 163d 1343 7f3b 1b04 eabc
000001b0: 75f3 cdbc 30ec 0f3d 6828 be3c a672 2fbd
000001c0: 322c 26bd ebfd e5bc 24f4 f4ba ff52 9e3c
000001d0: 8463 1abd 00a1 d13c 73bc 9d3c f5e4 26bd
000001e0: 9163 523c f3af 183c 20ce 413c b099 9abb
000001f0: ed1a 8b3c fb74 9fb9 34b7 a5bc 5647 c5bc
00000200: f58d 963b 28c7 b13b dfd5 0cbd 79d7 e9bc
00000210: 73a4 15bd af9d dc3c 666d dd3c e262 833c
00000220: 998b b03b 690e 18bd f8dd c03c 75c6 a23c
00000230: 1a99 053c ef39 953c a568 b9bc 394b 263d
00000240: ac16 5d3c ad3c 7ebc 3311 1f3b 7ba3 6e3b
00000250: 4637 1f3d d393 033d f7b7 e8bc 88e8 ef3b
00000260: 4c12 06bd 6dfe 06bd 182e 343c b67d 99bc
00000270: 06b1 a6bc fe18 5f3c 3354 f5bc 325a 7d3b
00000280: bec6 243c 4642 b53c ae61 273d 5e5d 02bd
00000290: 8ddc 423c db09 bf3c d8f4 eebc 0956 1ebd
000002a0: 751b 243d 8003 2f3d ff69 c53c 921d dcbc
000002b0: 4e7f 063d 2e13 703c 98fd 19bc 3a51 09bd
000002c0: 3a5b 1b3d 65c0 cfbc 07fc d9bc 37bf 17bd
000002d0: b6ce 123d b0cc d8bb f089 1ebc b714 b3bb
000002e0: 790c 893c ac3c 1bbd 04ca c13c eecd a2bc
000002f0: c933 fb3b adae d7bb 5a46 263d 55a5 183d
00000300: 5030 2c3c 9a40 bdbc 9e10 c23c a073 efba
00000310: c6b5 d33a 9a63 d43c 94a6 b33c d6eb e13c
00000320: 1483 c4bc 2b1c 223d 033b cebc bde0 7ebc
00000330: 7263 0c3d 4bd1 bbbc 235b 243d 2e7d 37bd
00000340: b85b cbbc 7dd2 1fbc 6a0c e43b aebb 003d
00000350: 22ba 833c d873 1bbd f2e8 b83c 37b6 16bd
00000360: 3e15 3eba b4ad efbb 8a18 ab3c a71e 05bd
00000370: eeb2 083d a88a 323c a35a ba39 ade4 e0bc
00000380: ad50 2fbd 7f0a 81bc bb2f da3b 5348 32bd
00000390: 4a61 c23c 5795 1dbc d215 ca3c 2037 00bd
000003a0: 9932 ea3c fcff 41bc 6ce2 c33c 86b8 ddbc
000003b0: baba 02bd 8eb8 b73c 6e4d 043d d725 033d
000003c0: f1f5 1d3d 8855 17bd a9e4 28bd 727d 3bbd
000003d0: 94b9 c1bc eca3 b7bb 0d0f e2bc 8e10 003d
000003e0: 0bf2 123c e589 a93c 4121 1abb a3d8 2ebd
000003f0: 9e2a dd3c 61f5 95bc 34b1 543c 0cf4 d7bc

fc3.weight f4 [128, 256]
0.03236627 -0.05463719 -0.00081839843 -0.021474997 0.0142303705 -0.037827484 0.036016494 0.045847565
-0.027542466 0.06236696 0.050719116 -0.042220756 0.054241303 -0.016783055 -0.0497061 -0.008272436
0.027679138 0.05493387 0.00038215285 -0.046659704 -0.039763194 -0.05386617 -0.022276264 -0.04861322
0.04567445 0.02633537 0.00046326747 0.022951193 0.03924207 -0.03257159 -0.03571021 -0.005977101
-0.02725073 0.009205316 0.01622153 -0.011130882 -0.047284704 -0.05680755 -0.039320905 -0.0028430521
-0.049960937 0.022386832 -0.03357884 -0.04796646 0.036481537 0.049084388 0.005900882 0.03792241
-0.0022397893 -0.02068039 -0.044694617 -0.006383444 -0.0515259 -0.047612097 0.08104744 -0.014203129
0.058375515 0.03718592 0.05111056 -0.0041141845 0.028309023 -0.027147623 0.026029207 0.05541516
0.029402964 0.009056315 0.048772715 -0.01514118 -0.05243147 0.014066962 0.016245428 -0.028908916
0.00011219775 -0.050442528 -0.04143284 0.038318977 0.03292668 -0.05044061 -0.045628175 -0.004179266
0.015826264 0.0010938969 -0.023712868 0.06391575 0.04825814 0.02245734 -0.007052662 -0.013932787
0.014526008 0.03631984 0.035392642 -0.032615386 0.006477022 0.04852747 -0.05726392 -0.055331912
-0.015966851 0.025038023 -0.028214052 0.024627239 0.020085474 0.030055573 0.014354765 -0.0076109115
0.045390345 0.038790204 -0.02685029 -0.04450051 -0.04603384 0.044619612 -0.013197705 -0.028951745
-0.032654524 0.024921611 0.025199303 -0.024935191 0.014155083 -0.062454067 -0.039587922 0.024835251
-0.021420775 0.029709382 0.023059163 -0.04639607 0.038613066 0.026612202 0.02440948 -0.05491827
0.005935808 -0.055198286 0.024378344 -0.05983771 -0.006342406 -0.03345086 0.016612213 -0.04921043
-0.057226613 0.011348493 0.010885702 0.038056742 -0.05385075 -0.051781144 -0.04911962 -0.007539282
-0.02797639 0.06444614 -0.008095549 -0.005095153 -0.015007073 -0.042051025 -0.0032439476 -0.015682226
0.036410555 -0.04809237 0.03688156 -0.02380696 0.008864957 -0.032906726 -0.026738254 0.031255376
0.012864103 0.036235757 0.044531874 -0.0014599822 -0.012169527 0.03693861 -0.044003095 0.006679699
0.048989747 -0.0029298086 -0.059302796 0.031157967 0.027678214 -0.040689323 -0.0021572635 -0.053971328
0.058443878 -0.041026838 -0.0007027611 0.009400606 -0.036751423 -0.0038219616 0.04403709 -0.0029871422
0.023328515 0.04160118 -0.025751937 0.009854253 0.05107222 0.025291456 0.029725268 -0.015615584
-0.03440386 -0.010599032 0.06395781 -0.060311694 0.06289642 -0.00988665 0.0114500495 -0.022113312
-0.048297085 -0.056571346 -0.049103417 0.012522056 0.05644361 -0.03775378 0.027313856 0.032504436
-0.009665556 -0.05160326 0.037787665 0.027616484 -0.020204727 -0.038587905 -0.0070007034 0.04746403
0.025864888 -0.026138544 -0.03215467 0.05891505 0.052994136 -0.01286196 -0.05561938 0.029952943
-0.02869948 0.056170788 -0.039478686 -0.054966614 0.059505183 0.05018995 0.04817872 -0.0011370706
0.018357133 0.045945477 0.04084928 0.037874915 -0.048018105 0.006462748 -0.057667315 -0.0047613084
0.036653478 0.0035896811 0.018262338 0.039290193 0.014136003 -0.044344395 -0.016467933 0.060509063
-0.012339623 0.0049364096 -0.03756678 0.005309411 0.015558909 -0.054965794 -0.017197642 -0.05884783
00000000: 7e92 043d 3fcb 5fbd ca89 56ba 55ec afbc
00000010: 8026 693c fef0 1abd 0886 133d a8ca 3b3d
00000020: bda0 e1bc 7f74 7f3d d9be 4f3d acef 2cbd
00000030: 212c 5e3d 9e7c 89bc a098 4bbd 1d89 07bc
00000040: 5cbf e23c 5602 613d b05b c839 3f1e 3fbd
00000050: bbde 22bd c6a2 5cbd b67c b6bc a81e 47bd
00000060: 2215 3b3d 46bd d73c b5e2 f239 2404 bc3c
00000070: 4bbc 203d ca69 05bd df44 12bd 8fdb c3bb
00000080: ec3c dfbc e5d1 163c 04e3 843c 4e5e 36bc
00000090: 9bad 41bd 09af 68bd f50e 21bd 8052 3abb
000000a0: d7a3 4cbd 9764 b73c f789 09bd 7b78 44bd
000000b0: aa6d 153d b60c 493d 305c c13b 8754 1b3d
000000c0: 6ec9 12bb ec69 a9bc b411 37bd 362c d1bb
000000d0: d20c 53bd e704 43bd 33fc a53d 3eb4 68bc
000000e0: 2a1b 6f3d 4350 183d 4e59 513d 48d0 86bb
000000f0: 53e8 e73c b164 debc 343b d53c 02fb 623d
00000100: 7cde f03c f060 143c e6c5 473d b612 78bc
00000110: 62c2 56bd 1d79 663c 2215 853c 64d2 ecbc
00000120: b54b eb38 d39c 4ebd 7bb5 29bd 5cf4 1c3d
00000130: 20de 063d d09a 4ebd 9ce4 3abd 39f2 88bb
00000140: 15a6 813c 1761 8f3a 7d41 c2bc 43e6 823d
00000150: 54aa 453d 75f8 b73c 041a e7bb 5846 64bc
00000160: 7efe 6d3c 1dc4 143d e0f7 103d b697 05bd
00000170: 333d d43b bec4 463d 928d 6abd b7a3 62bd
00000180: eacc 82bc 8a1c cd3c 2821 e7bc 10bf c93c
00000190: 4b8a a43c 1b37 f63c 4030 6b3c f464 f9bb
000001a0: 3aeb 393d 7ae2 1e3d 24f5 dbbc 2b46 36bd
000001b0: fb8d 3cbd 0ec3 363d 303b 58bc 362c edbc
000001c0: c0c0 05bd 6828 cc3c c56e ce3c e344 ccbc
000001d0: b9ea 673c d6cf 7fbd f226 22bd 4c73 cb3c
000001e0: 9f7a afbc 1761 f33c 92e6 bc3c ce09 3ebd
000001f0: bc28 1e3d d501 da3c 64f6 c73c fbf1 60bd
00000200: 2b81 c23b 9917 62bd 18b5 c73c 6318 75bd
00000210: f5d3 cfbb c503 09bd 5616 883c e090 49bd
00000220: 7466 6abd 08ef 393c f259 323c 63e1 1b3d
00000230: 9b92 5cbd 7718 54bd a831 49bd 150c f7bb
00000240: be2e e5bc 56fc 833d 32a3 04bc 3ef5 a6bb
00000250: 3ae0 75bc b23d 2cbd 6998 54bb 0378 80bc
00000260: 3c23 153d 81fc 44bd 1e11 173d d006 c3bc
00000270: 533e 113c 34c9 06bd 2f0a dbbc a305 003d
00000280: f5c3 523c f26b 143d 0e67 363d e05c bfba
00000290: b262 47bc f14c 173d 973c 34bd 60e1 da3b
000002a0: 79a9 483d 0802 40bb 7de7 72bd fe3e ff3c
000002b0: 6cbd e23c d9a9 26bd e060 0dbb 0a11 5dbd
000002c0: d962 6f3d c20b 28bd 8039 38ba 0005 1a3c
000002d0: a988 16bd e079 7abb 3c60 343d eec3 43bb
000002e0: 711b bf3c 0066 2a3d baf5 d2bc bc73 213c
000002f0: 1b31 513d 0730 cf3c 6882 f33c 82d8 7fbc
00000300: 10eb 0cbd 90a7 2dbc 50fc 823d 6509 77bd
00000310: d7cf 803d 9efb 21bc fd98 3b3c fa26 b5bc
00000320: 2ad3 45bd 5bb7 67bd aa20 49bd 4f29 4d3c
00000330: 6a31 673d b5a3 1abd 4fc1 df3c 5f23 053d
00000340: 485c 1ebc f15d 53bd 3dc7 1a3d f73b e23c
00000350: 6284 a5bc 5a0e 1ebd 2866 e5bb a569 423d
00000360: 9ae2 d33c 8020 d6bc 9eb4 03bd e850 713d
00000370: 6110 593d f8ba 52bc 26d1 63bd e05f f53c
00000380: 2c1b ebbc 5713 663d 67b4 21bd ac24 61bd
00000390: b5bb 733d fa93 4d3d 0d57 453d c209 95ba
000003a0: b361 963c 5331 3c3d 9351 273d ba22 1b3d
000003b0: a2ae 44bd 76c5 d33b 9034 6cbd c004 9cbb
000003c0: f521 163d db40 6b3b e69a 953c c1ee 203d
000003d0: b29a 673c 78a2 35bd c2e7 86bc 5ad8 773d
000003e0: 212c 4abc 9bc1 a13b a0df 19bd 91fa ad3b
000003f0: cbea 7e3c d023 61bd 12e2 8cbc 6c0a 71bd

fc3.bias f4 [128]
0.051387977 0.018824099 -0.014795194 0.025794424 -0.005358092 0.031282954 -0.050372455 0.000119543794
0.0016714694 0.050501447 0.04225999 0.052208446 -0.0015637747 0.032453332 0.011697907 -0.06108673
-0.05907651 -0.0044742194 0.008563667 0.038759284 0.022433465 0.017934218 0.014091058 -0.04257312
-0.02394794 -0.040952746 -0.039032567 0.05688353 0.04168084 0.0606391 -0.023755506 -0.056424104
-0.011762694 -0.039545417 0.0035478068 0.045180477 -0.058862265 -0.03302055 -0.074344195 -0.03586803
0.04291862 -0.042796515 -0.004491507 -0.048395075 0.039324112 -0.006745057 -0.0435917 -0.0013590562
-0.021489365 0.05595439 0.04256429 -0.027829075 0.028725572 0.029716803 -0.015307187 -0.018952766
-0.053519137 -0.04077885 -0.06640157 -0.035139702 -0.056286726 0.019417165 -0.00076155295 -0.036299087
-0.057285596 -0.0029395316 -0.038017794 -0.019585881 0.040216118 0.04682815 0.06525446 -0.0559927
0.009598574 0.047073156 0.025909495 -0.029061455 -0.025227007 0.017942881 0.066773675 -0.020831136
-0.030261425 -0.0156903 0.025100801 0.006486003 0.034885567 0.025037551 0.056615576 0.030652797
-0.03584995 -0.009840034 -0.051455878 -0.017462172 -0.05830867 0.028649788 0.049641173 -0.06165015
-0.014464071 -0.044588443 0.0077104084 0.061680287 -0.05491635 -0.007790254 -0.007367348 -0.018521518
-0.067688964 -0.026005113 -0.018876078 0.019746428 -0.040736016 -0.0624368 0.01062653 -0.0011638858
0.06373423 -0.02449727 -0.07107335 0.070451245 0.045597766 0.053563666 -0.03800979 -0.0054955343
-0.057656106 0.05866375 0.005869311 -0.0039870315 -0.030135702 -0.035964396 0.044371672 -0.05035842
00000000: 337c 523d ff34 9a3c 8b67 72bc d44e d33c
00000010: ef92 afbb 8e22 003d 5953 4ebd 96b3 fa38
00000020: 3515 db3a 9bda 4e3d d018 2d3d 86d8 553d
00000030: 92f7 ccba c9ed 043d 94a8 3f3c 1436 7abd
00000040: 36fa 71bd 799c 92bb 9f4e 0c3c 0ec2 1e3d
00000050: 63c6 b73c c8ea 923c 2ede 663c 2761 2ebd
00000060: 782e c4bc 11be 27bd 9de0 1fbd b4fe 683d
00000070: 87b9 2a3d b460 783d e89a c2bc f61c 67bd
00000080: 51b8 40bc 60fa 21bd 5282 683b 2a0f 393d
00000090: 8f19 71bd 8e40 07bd c541 98bd 5bea 12bd
000000a0: 6fcb 2f3d 664b 2fbd 7e2d 93bb ea39 46bd
000000b0: 5212 213d a405 ddbb 368d 32bd 5c22 b2ba
000000c0: 770a b0bc 6e30 653d e557 2e3d cdf9 e3bc
000000d0: e451 eb3c a770 f33c ffca 7abc d542 9bbc
000000e0: e236 5bbd b907 27bd 8cfd 87bd a6ee 0fbd
000000f0: e98c 66bd bf10 9f3c f4a2 47ba 5aae 14bd
00000100: 4da4 6abd 28a5 40bb 8cb8 1bbd 9272 a0bc
00000110: a8b9 243d e0ce 3f3d 21a4 853d 9a58 65bd
00000120: 5643 1d3c c8cf 403d 2640 d43c 4a12 eebc
00000130: dea8 cebc f3fc 923c a3c0 883d 0fa6 aabc
00000140: cfe6 f7bc f288 80bc 32a0 cd3c 8988 d43b
00000150: 2be4 0e3d 8d1b cd3c bce5 673d 931b fb3c
00000160: 66d7 12bd 1838 21bc 66c3 52bd d40c 8fbc
00000170: 12d5 6ebd f6b2 ea3c 8b54 4b3d de84 7cbd
00000180: b6fa 6cbc 5fa2 36bd 98a7 fc3b 78a4 7c3d
00000190: f7ef 60bd 6345 ffbb cb69 f1bb 70ba 97bc
000001a0: 83a0 8abd ad08 d5bc 01a2 9abc 43c3 a13c
000001b0: cfda 26bd bbbd 7fbd e61a 2e3c 878d 98ba
000001c0: 1887 823d 80ae c8bc e88e 91bd be48 903d
000001d0: b9c4 3a3d 9365 5b3d 27b0 1bbd e213 b4bb
000001e0: cf28 6cbd 6649 703d 5953 c03b a5a5 82bb
000001f0: 26df f6bc 674f 13bd 12bf 353d a144 4ebd

value_fc.weight f4 [1, 128]
-0.07414433 0.037604745 0.0049615507 -0.08776936 0.066197045 0.06699456 0.07212057 -0.030302187
-0.0744709 -0.017498778 -0.083954565 -0.0044861645 -0.09124315 0.0090147685 0.02344801 0.06484427
0.06363149 0.05394117 -0.08199392 -0.03849272 0.06589501 0.028862583 -0.0750984 0.022735165
-0.07232211 0.07961318 0.08116101 -0.09241621 0.081341006 -0.09003619 -0.06302008 0.07805799
0.08454536 -0.05935238 -0.05544634 -0.048157282 0.021564424 0.035714153 0.07765078 -0.011261429
0.042149916 -0.08673746 -0.005622264 -0.08508492 0.060882878 -0.011433339 -0.058672834 -0.0037257036
0.007232576 -0.011437529 -0.011148663 -0.083367415 -0.076617725 0.03294935 0.02257193 0.044036128
0.043049477 0.03682244 0.070422165 -0.017940694 0.0146277705 -0.05086923 0.040828783 -0.08367254
0.0685102 -0.061527647 0.031041004 0.077327244 -0.050868142 0.06054313 -0.07096106 0.03531888
0.007448999 -0.02026373 0.021745514 0.047537133 -0.0040265294 0.0118280975 -0.072355084 -0.043865692
-0.00826892 -0.014920001 -0.08426044 0.07736882 -0.04442304 -0.005053474 -0.071039595 -0.03412208
-0.04634181 0.039899874 -0.036432117 -0.060503952 0.041079856 -0.0286645 0.031133227 -0.0137311565
0.07395913 -0.08161384 -0.011753652 -0.03889008 0.023167316 0.06567242 -0.05383598 0.005204498
0.07725814 0.05953465 0.038290612 0.06297904 -0.0222245 0.03358579 0.04756139 -0.07103334
-0.04723612 0.035677914 0.035217367 -0.07358037 -0.04384017 -0.005256541 -0.022850962 0.046389446
-0.0049594645 -0.012850648 0.00948651 0.051508635 -0.07244329 -0.086270384 -0.06728467 0.06516123
00000000: fcd8 97bd 6f07 1a3d 8194 a23b 6cc0 b3bd
00000010: 5192 873d 7234 893d f3b3 933d 4b3c f8bc
00000020: 3384 98bd 9959 8fbc 5ff0 abbd ad00 93bb
00000030: b0dd babd aeb2 133c 0b16 c03c 13cd 843d
00000040: 3a51 823d 6bf1 5c3d 6eec a7bd 8baa 1dbd
00000050: f7f3 863d 3971 ec3c 31cd 99bd 193f ba3c
00000060: 9d1d 94bd 3c0c a33d be37 a63d b644 bdbd
00000070: 1d96 a63d e564 b8bd ac10 81bd dedc 9f3d
00000080: 1e26 ad3d 7b1b 73bd b41b 63bd 9240 45bd
00000090: e0a7 b03c 0149 123d 5f07 9f3d db81 38bc
000000a0: 64a5 2c3d 69a3 b1bd f83a b8bb 0141 aebd
000000b0: 5360 793d e652 3bbc ed52 70bd ef2a 74bb
000000c0: 3fff ec3b 7964 3bbc e2a8 36bc 89bc aabd
000000d0: c1e9 9cbd e6f5 063d c5e8 b83c 3a5f 343d
000000e0: a654 303d 20d3 163d 7f39 903d 5df8 92bc
000000f0: 51a9 6f3c 415c 50bd 153c 273d 825c abbd
00000100: 134f 8c3d 6a04 7cbd b449 fe3c bf5d 9e3d
00000110: 1d5b 50bd 13fc 773d 0854 91bd 88aa 103d
00000120: bc16 f43b 1f00 a6bc a623 b23c 4cb6 423d
00000130: faf0 83bb a3ca 413c e72e 94bd 83ac 33bd
00000140: 5d7a 07bc 0573 74bc bd90 acbd 8b73 9e3d
00000150: eff4 35bd 9d97 a5bb 357d 91bd 98c3 0bbd
00000160: e9d0 3dbd 0d6e 233d d839 15bd fed2 77bd
00000170: 5a43 283d d0d1 eabc 1c0b ff3c a5f8 60bc
00000180: e277 973d 2825 a7bd 6492 40bc 344b 1fbd
00000190: 62c9 bd3c 437f 863d 1e83 5cbd 7e8a aa3b
000001a0: 8439 9e3d 9bda 733d 9ed6 1c3d 28fb 803d
000001b0: 2810 b6bc 4191 093d bbcf 423d ee79 91bd
000001c0: a97a 41bd 0123 123d 1640 103d 4eb1 96bd
000001d0: c091 33bd 103f acbb f131 bbbc dc02 3e3d
000001e0: 0183 a2bb 868b 52bc 4f6d 1b3c b8fa 523d
000001f0: 265d 94bd 87ae b0bd 8ccc 89bd 4073 853d

advantage_fc.weight f4 [3, 128]
0.06280152 0.026537701 -0.07428866 -0.038684852 -0.039033275 -0.007135969 0.076115526 0.029981423
0.07743091 -0.080893524 -0.06403574 -0.009494154 -0.013000015 -0.054999426 -0.07481264 -0.07847641
0.057476826 0.050282896 -0.041069582 -0.08861612 -0.027909726 -0.048659887 0.061052185 0.06224928
-0.030978104 -0.010658569 0.028637795 0.08029528 0.011859044 0.026602797 -0.057758957 -0.05459407
-0.04303541 -0.016241813 0.03735778 0.07210047 0.077816196 -0.02537308 -0.060568053 -0.07346126
-0.061787263 -0.06955094 -0.08618759 0.056250323 -0.043873448 0.08273962 -0.01138393 0.02622011
-0.017424991 0.052135244 -0.033452943 0.017506892 -0.013242014 0.043451574 -0.035140164 0.081471145
-0.09204808 0.052714806 -0.05167332 -0.0077509335 0.06498226 0.009155868 -0.049304537 -0.09436415
-0.04464665 0.052369133 0.079651535 0.034432676 -0.022923311 0.013423 -0.017440585 0.07532997
0.0153249 -0.07499131 0.07740552 0.014391936 -0.012152214 -0.10128728 0.07735768 -0.017868182
-0.018743187 -0.06752673 -0.043615583 -0.0148835415 0.054498017 -0.046177316 0.08420684 0.008357733
-0.062981784 -0.0034769487 0.05237066 -0.0921111 -0.023127833 -0.07114424 0.07055685 -0.052545838
0.08769482 -0.044219982 -0.014208246 -0.092204 0.020080283 0.03775648 -0.051188122 0.08154794
0.07012204 0.072404645 0.049181223 0.069173686 -0.06249523 0.038029805 0.045883533 0.037868083
0.08689659 0.060222372 -0.067867905 0.03876508 0.055897117 -0.018103506 -0.077011466 -0.04684422
-0.025798557 -0.07237934 -0.005945637 0.083318986 -0.042657103 -0.042274266 0.016915064 0.012566154
-0.0091568865 0.023891924 0.06188315 -0.009527746 0.059579715 0.07630484 0.054278497 0.08243747
-0.034807913 0.074890934 0.0015515325 0.006329848 0.027133344 -0.07877589 0.023806296 -0.025517866
-0.035727523 -0.0026820987 -0.020574363 0.013719667 0.023763694 0.006272184 -0.028652458 0.05477933
0.08682304 -0.030604485 0.037010215 0.01881201 -0.09197687 -0.031198747 -0.014276302 -0.060785536
0.020441491 -0.047464848 -0.053576592 -0.057317097 0.037808426 0.057550196 0.08429028 0.0227681
-0.061602645 -0.04451368 0.038834658 0.044942126 -0.044822436 0.0565086 -0.072421335 0.022174275
-0.059703913 -0.06130219 0.05956759 -0.03233925 0.018245941 0.07224041 -0.047736544 -0.086464375
0.023714185 0.07473208 0.063695945 0.030528944 -0.050172843 0.017213752 0.010385898 -0.0864166
0.0055500693 -0.07817392 0.05509063 -0.04310604 0.01111428 -0.07585505 -0.011048272 0.01331883
0.07007629 -0.0466157 -0.031313125 -0.08400913 -0.058223087 0.07720471 -0.025886267 0.017100217
-0.093074 0.056708742 0.08343098 0.05876257 -0.09898814 0.05408992 -0.015324096 0.025575586
-0.04152158 -0.040214695 0.022487078 0.009464867 0.03579062 0.056111403 0.07978882 -0.06664254
0.04103348 0.049093116 0.09153905 0.046405725 0.013565366 0.017960172 -0.011104715 0.077670924
0.028191915 -0.043481953 -0.03871426 -0.08626271 0.028036656 -0.08959825 -0.052780163 -0.049739733
0.03928592 0.06657177 0.014165761 0.012875045 0.04824112 -0.08701495 -0.024574209 0.04434044
0.006436352 -0.028129855 0.0088239135 0.058330927 -0.010157325 -0.062875494 -0.075629175 0.006589131
00000000: 159e 803d 9865 d93c a724 98bd 0274 1ebd
00000010: 5be1 1fbd d9d4 e9bb 75e2 9b3d 9a9b f53c
00000020: 1994 9e3d 81ab a5bd 2c25 83bd 5e8d 1bbc
00000030: 04fe 54bc 1447 61bd 5f37 99bd 3db8 a0bd
00000040: d26c 6b3d 70f5 4d3d 9438 28bd 5e7c b5bd
00000050: f0a2 e4bc 974f 47bd db11 7a3d 1af9 7e3d
00000060: cbc5 fdbc 47a1 2ebc cf99 ea3c da71 a43d
00000070: 704c 423c 1cee d93c a894 6cbd 089e 5fbd
00000080: e645 30bd 8d0d 85bc 7904 193d 69a9 933d
00000090: 195e 9f3d 35db cfbc 3516 78bd db72 96bd
000000a0: a414 7dbd b970 8ebd 1f83 b0bd bd66 663d
000000b0: a5b4 33bd 6473 a93d aa83 3abc 8ecb d63c
000000c0: dbbe 8ebc c48b 553d f405 09bd 9d6a 8f3c
000000d0: 08f5 58bc 47fa 313d 22ef 0fbd 58da a63d
000000e0: b483 bcbd 7beb 573d 67a7 53bd 8bfb fdbb
000000f0: 6b15 853d 7e02 163c 8ef3 49bd fe41 c1bd
00000100: 68df 36bd 0481 563d 5820 a33d 4709 0d3d
00000110: abc9 bbbc 25ec 5b3c 8fdf 8ebc 9946 9a3d
00000120: 4a15 7b3c 0b95 99bd c986 9e3d 28cc 6b3c
00000130: 141a 47bc b56f cfbd b46d 9e3d 4b60 92bc
00000140: 508b 99bc 744b 8abd 41a6 32bd 19da 73bc
00000150: 5039 5f3d 6d24 3dbd a374 ac3d dfee 083c
00000160: 98fc 80bd 85dd 63bb 9e82 563d bfa4 bcbd
00000170: 9576 bdbc 12b4 91bd 1c80 903d 4e3a 57bd
00000180: 5799 b33d 0320 35bd b4c9 68bc 73d5 bcbd
00000190: 687f a43c 8aa6 1a3d a3aa 51bd 9b02 a73d
000001a0: 259c 8f3d e348 943d 4072 493d efaa 8d3d
000001b0: 00fb 7fbd 24c5 1b3d 5ff0 3b3d 901b 1b3d
000001c0: d7f6 b13d bcab 763d 54fe 8abd 22c8 1e3d
000001d0: 60f4 643d ce4d 94bc 30b8 9dbd badf 3fbd
000001e0: 7f57 d3bc 9f3b 94bd 9ed3 c2bb 25a3 aa3d
000001f0: 37b9 2ebd c827 2dbd 7691 8a3c 45e2 4d3c
00000200: c406 16bc ffb8 c33c 3079 7d3d 431a 1cbc
00000210: dc09 743d b645 9c3d 2153 5e3d fad4 a83d
00000220: be92 0ebd 6b60 993d cb5c cb3a 9d6a cf3b
00000230: bf46 de3c 4155 a1bd 6c05 c33c d80a d1bc
00000240: 0657 12bd 26c6 2fbb 918b a8bc 74c8 603c
00000250: 14ac c23c e586 cd3b 8fb8 eabc 4a60 603d
00000260: 47d0 b13d 42b6 fabc 0698 173d a51b 9a3c
00000270: 5f5e bcbd 8494 ffbc 27e7 69bc 41fa 78bd
00000280: ea74 a73c 806a 42bd 2173 5bbd 55c5 6abd
00000290: 02dd 1a3d c1b9 6b3d 62a0 ac3d 2b84 ba3c
000002a0: 0e53 7cbd fa53 36bd 1711 1f3d 3c15 383d
000002b0: bb97 37bd 9075 673d a351 94bd d3a6 b53c
000002c0: 178c 74bd 0118 7bbd 25fd 733d 2976 04bd
000002d0: 8378 953c c8f2 933d 6587 43bd 3c14 b1bd
000002e0: 4044 c23c 220d 993d 0573 823d d617 fa3c
000002f0: 0a82 4dbd db03 8d3c 9d29 2a3c 30fb b0bd
00000300: 5bdd b53b a619 a0bd b6a6 613d f68f 30bd
00000310: ab18 363c e459 9bbd d003 35bc 3937 5a3c
00000320: 2884 8f3d 1bf0 3ebd 3142 00bd fb0c acbd
00000330: 557b 6ebd 811d 9e3d 700f d4bc c115 8c3c
00000340: 959d bebd 6d47 683d dddd aa3d 05b1 703d
00000350: 4bba cabd 648d 5d3d eb11 7bbc e483 d13c
00000360: 8812 2abd 2ab8 24bd d236 b83c 8812 1b3c
00000370: 2f99 123d 12d5 653d 5268 a33d e27b 88bd
00000380: b912 283d dd15 493d d378 bb3d ee13 3e3d
00000390: 4541 5e3c 3621 933c 8df0 35bc ef11 9f3d
000003a0: bbf2 e63c 221a 32bd d892 1ebd 81aa b0bd
000003b0: 21ad e53c 4a7f b7bd 0330 58bd e4bb 4bbd
000003c0: 46ea 203d c856 883d 8217 683c daf1 523c
000003d0: 7b98 453d e534 b2bd da4f c9bc 529e 353d
000003e0: 09e8 d23b 9570 e6bc 2d92 103c 69ec 6e3d
000003f0: e96a 26bc dec4 80bd 78e3 9abd a3e9 d73b

advantage_fc.bias f4 [3]
0.009064054 -0.02437724 -0.04878868
00000000: 6681 143c c7b2 c7bc a4d6 47bd
