Project_2/Code/Games/dqn_model.pth (torch, 705684 bytes, 9 tensors)

fc1.weight f4 [512, 20]
0.0052885283 0.061107256 0.08594024 0.11489473 0.0616342 0.22005711 0.040918965 0.07555392
-0.03409495 0.06778306 0.1973775 0.11478767 -0.19062468 -0.047566265 -0.14472228 0.21362212
-0.18021607 -0.063822985 -0.033850044 -0.2128055 0.08769776 -0.15389164 0.15285693 -0.032636825
0.18363331 0.11619165 0.14704424 0.19882041 -0.05436424 -0.21790484 0.1705848 -0.095744535
0.13553885 -0.16276936 -0.05928941 -0.11828547 0.21047463 0.15110022 0.09204203 0.04711461
0.022627808 -0.21527746 -0.16803338 0.029845193 0.06199814 -0.21135095 0.10138226 -0.12786937
0.007220431 -0.2188723 0.1005798 -0.12573418 -0.2114709 0.009766847 0.053608418 -0.048070595
-0.14984527 -0.09918636 -0.053501487 0.10845584 0.18248983 0.080150075 -0.19029625 -0.0783428
0.16991068 0.19636434 0.029143406 0.20191051 0.093198225 0.1143468 -0.10417069 -0.032476455
-0.019432604 0.19904745 0.16358393 0.0022754371 0.2205175 0.032053024 -0.20941849 -0.20687887
0.04826423 -0.2139404 -0.07560164 -0.07845041 0.1986578 -0.08025116 -0.11743865 0.03342848
-0.21063359 0.18670502 -0.1487979 0.15131944 0.08272293 0.068691224 -0.108980395 0.2057592
-0.13701971 -0.07795815 0.16443017 -0.051453874 0.11038027 0.035915695 0.12293965 -0.10002765
-0.029841913 -0.23479335 0.20380485 -0.19306283 -0.17883305 -0.024875686 0.18935975 0.18614244
-0.051177457 0.11408344 -0.20757279 -0.14471349 -0.14833057 -0.061086714 -0.14587913 0.05100584
0.1848249 0.2265378 0.024768798 -0.15860368 -0.06703322 0.057969317 0.18822767 -0.042342268
0.019083066 -0.15748577 -0.008995369 0.098887384 -0.10663773 0.1445339 0.10023606 0.043050975
-0.07618397 -0.15333506 0.073761344 -0.21665059 -0.13011687 -0.03672112 -0.028623091 -0.0857282
0.026449353 0.18670419 0.015858311 -0.08029609 -0.06679322 0.089874566 -0.07172787 -0.21813722
-0.042545915 0.20214108 0.20046666 -0.05387664 -0.17201443 0.060625196 -0.046944857 0.074131966
-0.1981856 -0.051249236 -0.2185602 -0.0045909584 -0.13869521 0.015591398 0.06005469 -0.16495612
0.019161731 0.034558177 -0.014588296 -0.04462765 0.10349953 0.008808583 0.14961454 0.05899343
-0.029046223 -0.1584166 -0.0067854226 -0.10423205 -0.12877855 -0.05953075 -0.07155299 -0.08332308
-0.16115007 -0.13870642 -0.21560533 0.049886286 0.07235402 0.050516576 -0.17395502 -0.13669342
-0.17855811 0.17020896 -0.036183417 0.11852303 0.16536617 -0.08752498 0.035292238 0.027854562
0.1173847 0.1339216 -0.13698162 -0.08364588 -0.033032894 -0.1634008 -0.08774209 0.19465846
-0.11876856 0.0038520098 -0.1779761 0.09382138 0.010837272 -0.16838264 -0.058575884 0.22087571
0.16289145 -0.1485059 0.02629447 0.021561056 -0.11946536 -0.15516114 -0.1499656 -0.21977279
0.18753584 -0.18869282 0.16187587 -0.097649954 -0.08687619 0.16052935 -0.048341706 0.1381076
-0.03839889 -0.07735413 -0.18762985 0.06580189 -0.08603554 -0.19104254 -0.04378678 -0.18020423
0.098755255 0.039723862 -0.22029379 -0.03700465 -0.107687175 0.22214419 -0.15333343 0.076369725
0.17489606 0.029522628 0.14285013 -0.028264105 -0.17509438 0.14835256 -0.19070177 0.08110881
00000000: 644b ad3b 9a4b 7a3d 7001 b03d ee4d eb3d
00000010: 2574 7c3d a756 613e a59a 273d 03bc 9a3d
00000020: 25a7 0bbd d8d1 8a3d 541d 4a3e cc15 eb3d
00000030: 1e33 43be d8d4 42bd 1432 14be c2bf 5a3e
00000040: 908a 38be a0b5 82bd 58a6 0abd afe9 59be
00000050: e29a b33d c595 1dbe 8786 1c3e 31ae 05bd
00000060: 5f0a 3c3e e3f5 ed3d c492 163e 9497 4b3e
00000070: 0aad 5ebd 7222 5fbe c8ad 2e3e b615 c4bd
00000080: b2ca 0a3e 03ad 26be 74d9 72bd a73f f2bd
00000090: a986 573e 04ba 1a3e 8880 bc3d 40fb 403d
000000a0: f45d b93c b271 5cbe f110 2cbe e87d f43c
000000b0: c3f1 7d3d 626c 58be 81a1 cf3d 30f0 02be
000000c0: 5e99 ec3b 0f20 60be c8fc cd3d 76c0 00be
000000d0: d48b 58be 2005 203c 8094 5b3d ace5 44bd
000000e0: 0a71 19be 3822 cbbd 6024 5bbd 181e de3d
000000f0: 9dde 3a3e b925 a43d 05dd 42be 3172 a0bd
00000100: 11fd 2d3e bc13 493e 27be ee3c a1c1 4e3e
00000110: b6de be3d a82e ea3d 7157 d5bd 0806 05bd
00000120: 2031 9fbc 18d3 4b3e 8c82 273e 801f 153b
00000130: 57cf 613e 084a 033d cd71 56be 0ed8 53be
00000140: b7b0 453d 3113 5bbe 08d5 9abd 9caa a0bd
00000150: f36c 4b3e b85a a4bd ad83 f0bd 4dec 083d
00000160: 55b0 57be 9a2f 3f3e 7a5e 18be 7cf3 1a3e
00000170: a46a a93d fcad 8c3d 1d31 dfbd 8ab2 523e
00000180: e54e 0cbe 86a8 9fbd 6260 283e 4cc1 52bd
00000190: 0d0f e23d 561c 133d c9c7 fb3d 4cdb ccbd
000001a0: 0777 f4bc ab6d 70be 38b2 503e 43b2 45be
000001b0: 0320 37be 18c8 cbbc 86e7 413e 209c 3e3e
000001c0: 749f 51bd 94a4 e93d f68d 54be c62f 14be
000001d0: f8e3 17be 1036 7abd 5761 15be 80eb 503d
000001e0: bd42 3d3e 86f9 673e efe7 ca3c 0169 22be
000001f0: b648 89bd 3c71 6d3d c1be 403e 166f 2dbd
00000200: 1754 9c3c f343 21be 5061 13bc 7885 ca3d
00000210: e264 dabd b200 143e 9048 cd3d 3856 303d
00000220: 5706 9cbd de03 1dbe 3010 973d a7d9 5dbe
00000230: 5b3d 05be e368 16bd f97a eabc 4492 afbd
00000240: 50ac d83c 622f 3f3e 4ae9 813c 4772 a4bd
00000250: e2ca 88bd 2810 b83d 10e6 92bd 5d5f 5fbe
00000260: a044 2ebd 12fe 4e3e 2247 4d3e c0ad 5cbd
00000270: 8d24 30be 2052 783d 4049 40bd 80d2 973d
00000280: 2af1 4abe b8ea 51bd 3fce 5fbe c06f 96bb
00000290: 1e06 0ebe 1073 7f3c e8fb 753d 42ea 28be
000002a0: 10f9 9c3c e08c 0d3d c003 6fbc 7ccb 36bd
000002b0: 90f7 d33d e051 103c 8e34 193e 18a3 713d
000002c0: 58f2 edbc f637 22be 4058 debb 9d77 d5bd
000002d0: 86de 03be 84d6 73bd 608a 92bd 4aa5 aabd
000002e0: 8604 25be 0e09 0ebe a5c7 5cbe 9055 4c3d
000002f0: 582e 943d 78ea 4e3d 4421 32be 5cf9 0bbe
00000300: f0d7 36be 424b 2e3e 1035 14bd 34bc f23d
00000310: c055 293e 4c40 b3bd 988e 103d 402f e43c
00000320: 6467 f03d be22 093e e944 0cbe 884e abbd
00000330: 804d 07bd 8a52 27be 20b2 b3bd 8c54 473e
00000340: ee3c f3bd 0072 7c3b 5e3f 36be 6c25 c03d
00000350: d08e 313c 806c 2cbe 44ed 6fbd 3e2d 623e
00000360: 04cd 263e ee11 18be 8067 d73c d0a0 b03c
00000370: 41aa f4bd 90e2 1ebe 9590 19be 1e0c 61be
00000380: 6509 403e b138 41be cac2 253e b3fc c7bd
00000390: 25ec b1bd ce61 243e f401 46bd 146c 0d3e
000003a0: 2848 1dbd d86b 9ebd 0a22 40be 24c3 863d
000003b0: 6733 b0bd a8a0 43be c459 33bd 7587 38be
000003c0: 3240 ca3d 7db5 223d b294 61be 3092 17bd
000003d0: 188b dcbd c479 633e 7003 1dbe bb67 9c3d
000003e0: f417 333e 70d9 f13c 4e47 123e 208a e7bc
000003f0: f14b 33be bce9 173e 5347 43be 601c a63d

fc1.bias f4 [512]
0.0441626 0.109997295 -0.027542679 0.10256602 -0.15635385 0.12396379 -0.18546042 -0.17282054
-0.06111814 -0.013091728 -0.043314278 0.21370363 -0.086014174 -0.0666828 0.047028176 -0.035444036
-0.16826329 0.097856775 0.203691 -0.037537232 -0.112082124 -0.03199574 0.15361959 0.032640103
0.07671604 0.08563699 0.023927676 -0.19519468 0.18014753 0.04884122 0.21445903 0.08231046
-0.18060412 -0.21740988 0.081290364 0.20107721 -0.09484966 0.16418716 -0.05028282 -0.09403942
0.088741735 -0.21352668 -0.10036367 0.17515965 -0.15969802 0.1492089 0.12082996 0.063105844
-0.08210147 0.08495062 -0.14030088 -0.12458434 0.17223066 0.11304588 -0.051743682 0.029449757
-0.1898798 -0.08337398 0.15987577 0.09656696 -0.1029605 -0.08519597 0.13648659 -0.15527698
-0.13039573 0.15328403 -0.1085368 -0.19689393 0.13379335 0.20092718 -0.19881627 -0.21517073
-0.21921237 0.1370379 -0.22545028 -0.06178104 -0.022330344 -0.19401465 -0.20928285 -0.12690945
0.09138796 0.18472104 0.1717302 -0.056669556 -0.0756021 -0.20962463 -0.11385242 -0.15570201
0.11930204 -0.022131579 0.21158414 -0.054676905 0.05323078 0.15484111 -0.10479965 0.19916207
0.18263087 0.12218211 -0.06339134 0.02034247 0.09564435 0.008676492 -0.0247102 0.19397143
-0.043418415 -0.06844808 -0.1259017 0.17773679 0.11150157 -0.20827003 0.07970713 -0.18883513
0.067534484 -0.08704298 -0.014357797 0.06184413 0.053966504 -0.06346133 -0.10266913 -0.18773922
-0.20784795 -0.014649836 -0.1533137 0.058922093 0.07991704 0.17241254 0.14810283 0.063965246
-0.11660495 0.052295517 0.11509672 -0.059523206 -0.19235046 0.04071184 0.15748563 0.06000795
0.14270036 -0.1489588 0.14542198 0.21859407 0.15379758 0.15498587 -0.1879617 0.025008375
-0.08525749 0.16554771 0.09637911 -0.09464828 -0.07797563 0.101694554 -0.044908103 0.07523166
-0.21896686 -0.16920848 0.19402525 -0.12497917 0.0585083 -0.098010466 0.105935395 0.13671274
-0.1796811 0.037005417 0.19945696 0.05460421 -0.035636313 -0.07331589 0.0020506696 -0.036194704
-0.074066974 0.16416895 -0.08369772 -0.22412674 0.016509086 0.09520729 0.19360337 0.024398066
-0.127367 -0.18498333 -0.15830186 -0.18391493 0.1712791 0.0696818 -0.16864613 0.22648755
0.022145819 0.16614875 -0.036769893 0.10890694 -0.057474684 -0.21457262 0.21001126 -0.07819551
-0.03745183 0.07217392 -0.09151446 0.14857446 0.0994644 0.1351242 0.07541344 0.05955864
0.08817324 0.006139384 -0.17672464 -0.15317102 -0.21779186 -0.19539216 -0.022913994 -0.09100748
-0.061932668 0.05627493 0.041473646 0.14111981 0.15511301 0.119361974 0.21066856 0.19509172
-0.09500096 -0.00069434417 -0.092559576 -0.04221325 -0.06528524 -0.19269581 0.07776626 -0.14667791
-0.08774243 -0.15685052 -0.14816767 0.1681331 0.1467308 0.20103426 0.16790758 -0.12897068
-0.18054183 0.14760767 -0.15772772 -0.1347756 -0.08031158 -0.13989843 0.08847543 -0.106035784
0.16223545 -0.024099527 -0.13294452 -0.19211857 0.1843954 -0.043100547 -0.12803087 0.11421407
-0.09492489 -0.1955361 0.12207421 0.04965133 -0.07707478 0.020930974 -0.038350046 0.11528292
00000000: d8e3 343d 4346 e13d 2fa1 e1bc 220e d23d
00000010: 391b 20be bae0 fd3d 56e9 3dbe def7 30be
00000020: 0457 7abd b07e 56bc 506a 31bd 20d5 5a3e
00000030: 3328 b0bd fe90 88bd 9ea0 403d c42d 11bd
00000040: 364d 2cbe 2269 c83d 6094 503e a4c0 19bd
00000050: 508b e5bd f70d 03bd 744e 1d3e a1b1 053d
00000060: 4d1d 9d3d 7262 af3d f903 c43c 1de1 47be
00000070: 9878 383e bb0d 483d 269b 5b3e 6392 a83d
00000080: 49f0 38be b2a0 5ebe 907b a63d 2fe7 4d3e
00000090: 8a40 c2bd ae20 283e 5cf5 4dbd bd97 c0bd
000000a0: 3abe b53d bda6 5abe 788b cdbd 0d5d 333e
000000b0: e187 23be 38ca 183e b375 f73d a33d 813d
000000c0: d124 a8bd 97fa ad3d 09ab 0fbe 1326 ffbd
000000d0: 3c5d 303e 9984 e73d 2ff1 53bd 9e40 f13c
000000e0: da6f 42be fabf aabd 79b6 233e e6c4 c53d
000000f0: f4dc d2bd 3a7b aebd 24c3 0b3e ee00 1fbe
00000100: 7586 05be 7df6 1c3e 8b48 debd 909e 49be
00000110: 2001 093e dbbf 4d3e 7e96 4bbe b755 5cbe
00000120: 3579 60be aa53 0c3e 70dc 66be 1e0e 7dbd
00000130: 20ee b6bc c7ab 46be 3e4e 56be 8df4 01be
00000140: 9c29 bb3d 8327 3d3e 0bda 2f3e 561e 68bd
00000150: 46d5 9abd d7a7 56be 752b e9bd 5970 1fbe
00000160: a154 f43d 494d b5bc 83a9 583e e4f4 5fbd
00000170: 8508 5a3d ab8e 1e3e 33a1 d6bd 24f1 4b3e
00000180: 9603 3b3e 9d3a fa3d 52d3 81bd 40a5 a63c
00000190: 2fe1 c33d d827 0e3c 0c6d cabc 72a0 463e
000001a0: 82d7 31bd 822e 8cbd 60ec 00be a200 363e
000001b0: ef5a e43d bd44 55be 7e3d a33d ff5d 41be
000001c0: 854f 8a3d 9743 b2bd f73c 6bbc 4550 7d3d
000001d0: fb0b 5d3d 04f8 81bd 3144 d2bd b63e 40be
000001e0: 18d6 54be de05 70bc 44fe 1cbe 4b58 713d
000001f0: 8cab a33d ea8c 303e 45a8 173e 3600 833d
00000200: 93ce eebd d333 563d d4b7 eb3d 9bce 73bd
00000210: 85f7 44be 75c1 263d ea43 213e e5ca 753d
00000220: 0b20 123e a888 18be 80e9 143e 20d7 5f3e
00000230: 1d7d 1d3e 9eb4 1e3e 0879 40be 5dde cc3c
00000240: 7b9b aebd 5785 293e 6962 c53d f5d6 c1bd
00000250: b0b1 9fbd 3c45 d03d 8ff1 37bd 0e13 9a3d
00000260: d938 60be fd44 2dbe 8eae 463e 14f5 ffbd
00000270: 66a6 6f3d b6b9 c8bd a8f4 d83d 6dfe 0b3e
00000280: 53fe 37be fe92 173d 723e 4c3e aaa8 5f3d
00000290: 62f7 11bd a426 96bd 8764 063b e640 14bd
000002a0: 6db0 97bd e81b 283e b669 abbd 7b81 65be
000002b0: 103e 873c 0afc c23d f63f 463e 74de c73c
000002c0: 7f6c 02be 456c 3dbe e219 22be 3254 3cbe
000002d0: ca63 2f3e 55b5 8e3d 92b1 2cbe 5aec 673e
000002e0: 266b b53c e622 2a3e 079c 16bd 9a0a df3d
000002f0: 936a 6bbd edb8 5bbe 310d 573e f824 a0bd
00000300: 1767 19bd eccf 933d ef6b bbbd e723 183e
00000310: feb3 cb3d 005e 0a3e 5d72 9a3d c3f3 733d
00000320: 2c94 b43d e32c c93b 4ef7 34be ddd8 1cbe
00000330: d404 5fbe e214 48be 21b6 bbbc 2162 babd
00000340: 1cad 7dbd 8a80 663d 45e0 293d b681 103e
00000350: f2d5 1e3e 0d74 f43d 80b9 573e 20c6 473e
00000360: dd8f c2bd a604 36ba e08f bdbd cde7 2cbd
00000370: 45b4 85bd 0d52 45be eb43 9f3d bc32 16be
00000380: 4eb2 b3bd 6c9d 20be 44b9 17be 152b 2c3e
00000390: 9940 163e eddb 4d3e f7ef 2b3e e410 04be
000003a0: f5df 38be 7726 173e 6083 21be 9d02 0abe
000003b0: 667a a4bd 8941 0fbe 9b32 b53d 4a29 d9bd
000003c0: 0d21 263e 5f6c c5bc 9c22 08be bbba 44be
000003d0: 26d2 3c3e 338a 30bd 861a 03be 11e9 e93d
000003e0: fb67 c2bd 9e3a 48be 0b02 fa3d 315f 4b3d
000003f0: 62d9 9dbd 6f77 ab3c f014 1dbd 7419 ec3d

fc2.weight f4 [256, 512]
0.012816476 0.06991172 -0.00637416 -0.009284021 0.04775952 0.030996427 0.033111192 0.011701003
0.0146983825 -0.026437901 0.037415933 -0.015486809 -0.025734566 -0.015755314 -0.005742442 0.003189236
0.027946964 -0.033856113 0.04086512 -0.024907418 0.0031989852 -0.037032932 -0.024022933 0.017440211
-0.011827841 0.006648713 -0.014111776 0.022751758 -0.01439753 0.03456054 -0.0008808243 0.021419818
-0.022103962 -0.030274443 0.06284859 0.016401045 0.024034867 0.0344446 -0.019639904 -0.0026032676
0.006486336 0.016403506 0.0024024122 -0.032410387 0.050352685 -0.0068046795 0.04574059 -0.0036549761
0.04480166 -0.009159064 -0.023860363 -0.000200741 0.0019564992 0.020543365 0.027177155 0.052369326
0.019005012 0.047237784 0.05979394 0.02264554 0.039919578 -0.01371533 0.01264097 -0.0045402288
0.041409582 -0.02824145 0.002729145 0.03597113 -0.0063368706 0.03771596 -0.014704918 0.023346502
0.01944815 -0.011717267 0.004743194 0.0065671 -0.012344198 -0.010271624 0.018778238 0.06801045
0.0248758 0.02040194 0.02707343 0.052638758 -0.057078652 0.043820884 -0.028557735 0.021748263
0.047496054 -0.0053710737 0.029080639 -0.009054691 -0.008338815 0.0070813354 0.03053205 -0.017359795
0.046657596 0.050594427 0.025144126 0.026907826 0.046630558 0.02453232 -0.014835909 0.047283005
-0.027378296 0.05394917 -0.014570109 0.0423097 0.050282445 0.02111985 -0.0059973896 -0.03450278
0.017507777 0.042101733 0.032168962 -0.016186941 0.026392853 -0.023249976 -0.017964825 0.018297974
0.0015625618 0.043862015 0.030970488 -0.009718216 -0.007242024 -0.006780097 0.022649169 -0.0024615533
0.0679783 0.05987089 -0.014887821 0.052119922 0.008572638 0.0077588186 0.017114839 0.00013991457
0.04008204 -0.01385496 0.0031740654 0.01213985 0.02695164 -0.016234986 0.02542632 0.018979635
-0.0072398367 0.033663522 0.019846058 -0.052198466 0.00948064 0.036121134 0.014390508 0.042462535
0.043212865 0.041104656 0.025926253 0.004391916 0.019500652 0.050573368 0.055141546 0.042724643
0.020301182 -0.005629597 -0.026392732 0.00010525566 0.021080106 0.034451146 0.0068071275 -0.011346874
-0.019288184 0.020228038 0.0028157625 0.0048960773 0.05002282 0.038597986 0.050589446 0.068443924
0.037176274 -0.021619784 -0.015728097 -0.022180596 0.037422605 0.007151831 -0.039203595 -0.032039475
-0.027355181 0.0025847298 0.057974745 0.034745906 0.008020897 -0.0372273 0.033568528 0.024713976
0.025833704 0.023931973 -0.025804546 -0.027735978 0.01870821 -0.03216125 -0.021409621 0.01592103
0.0055457987 -0.017675338 0.029520703 0.054713767 -0.016459115 0.006852691 0.008018485 -0.005124369
-0.013965722 0.06848556 4.3599983e-05 0.044958998 0.016166786 0.03873616 -0.0049097794 0.026787784
0.0052771363 0.04671008 -0.008135211 -0.016540578 0.0700226 0.01609075 0.0015603356 0.0108425515
0.040481564 -0.0028721625 0.015048336 -0.004230165 0.01723982 0.040612843 0.05323147 0.008888081
0.034044757 -0.0009036731 -0.026210712 0.028832374 0.037128218 -0.031245485 0.049361717 -0.017398715
0.017855195 0.03142387 0.013136458 0.0042356644 -0.002979507 0.0011760223 0.05457094 -0.01934814
0.017173233 0.04672015 -0.017791389 -0.022783285 0.03624383 -0.0065974467 0.0042661615 0.019474113
00000000: 32fc 513c e02d 8f3d 54de d0bb 021c 18bc
00000010: 7d9f 433d 38ec fd3c 9a9f 073d 90b5 3f3c
00000020: 7cd1 703c 4c94 d8bc 7341 193d 63bc 7dbc
00000030: 4cd1 d2bc 4a11 81bc 182b bcbb 8002 513b
00000040: 08f1 e43c b5ac 0abd 2f62 273d a40a ccbc
00000050: 11a6 513b d8af 17bd becb c4bc c6de 8e3c
00000060: 90c9 41bc 72dd d93b 1435 67bc e561 ba3c
00000070: 9ee3 6bbc 5a8f 0d3d 1ee7 66ba 9d78 af3c
00000080: 5e13 b5bc 1c02 f8bc c3b6 803d 7c5b 863c
00000090: c5e4 c43c c815 0d3d dde3 a0bc 959b 2abb
000000a0: 548b d43b a560 863c ca71 1d3b c1c0 04bd
000000b0: 9e3e 4e3d caf9 debb 7c5a 3b3d 5388 6fbb
000000c0: f281 373d e60f 16bc cf76 c3bc 007e 52b9
000000d0: 9c38 003b 8f4a a83c a0a2 de3c 3881 563d
000000e0: 66b0 9b3c 687c 413d 7eea 743d 2483 b93c
000000f0: b682 233d 43b6 60bc 121c 4f3c 33c6 94bb
00000100: 189d 293d 9d5a e7bc 75db 323b 7756 133d
00000110: 86a5 cfbb 0d7c 1a3d e5ec 70bc 2a41 bf3c
00000120: ba51 9f3c c8f9 3fbc cc6c 9b3b d430 d73b
00000130: 523f 4abc 504a 28bc d2d4 993c 1049 8b3d
00000140: 55c8 cb3c f821 a73c 19c9 dd3c bd9b 573d
00000150: 4ecb 69bd 877d 333d e9f1 e9bc 6a29 b23c
00000160: 398b 423d d5ff afbb 853a ee3c 205a 14bc
00000170: 869f 08bc 8c0a e83b 5a1e fa3c 2136 8ebc
00000180: 091c 3f3d 1a3c 4f3d 0efb cd3c cd6d dc3c
00000190: afff 3e3d 01f8 c83c 5012 73bc d3ab 413d
000001a0: 7348 e0bc cef9 5c3d 77b7 6ebc f04c 2d3d
000001b0: f7f4 4d3d 8903 ad3c c085 c4bb c952 0dbd
000001c0: 786c 8f3c de72 2c3d 9ac3 033d 7a9a 84bc
000001d0: d335 d83c bc76 bebc f82a 93bc a2e5 953c
000001e0: e0ce cc3a a8a8 333d d2b5 fd3c 2739 1fbc
000001f0: 804e edbb 932b debb c08a b93c 0352 21bb
00000200: 3538 8b3d 2e3b 753d 0cec 73bc b37b 553d
00000210: 4074 0c3c b03d fe3b 6b34 8c3c 08b6 1239
00000220: 112d 243d eaff 62bc fb03 503b 39e6 463c
00000230: b0c9 dc3c 3cff 84bc dc4a d03c 2e7b 9b3c
00000240: 273c edbb c3e2 093d 3394 a23c 0fce 55bd
00000250: b054 1b3c c1f3 133d 2ac6 6b3c 32ed 2d3d
00000260: f9ff 303d 5b5d 283d 4b63 d43c 10ea 8f3b
00000270: d5bf 9f3c 0526 4f3d 1adc 613d 0900 2f3d
00000280: aa4e a63c 7c78 b8bb 9235 d8bc b4bc dc38
00000290: 30b0 ac3c a51c 0d3d 530e df3b 3de8 39bc
000002a0: 4102 9ebc 45b5 a53c a888 383b 466f a03b
000002b0: bae4 4c3d ec18 1e3d e136 4f3d 542c 8c3d
000002c0: 2646 183d f91b b1bc 36d8 80bc 15b4 b5bc
000002d0: 7248 193d e859 ea3b f393 20bd d33b 03bd
000002e0: f917 e0bc 9264 293b ed76 6d3d b951 0e3d
000002f0: 156a 033c a77b 18bd 277f 093d f774 ca3c
00000300: 34a1 d33c fc0c c43c 0e64 d3bc 9036 e3bc
00000310: f641 993c 84bb 03bd 3b63 afbc d26c 823c
00000320: 88b9 b53b dfcb 90bc 67d5 f13c 8b1b 603d
00000330: 44d5 86bc 8a8c e03b f75f 033c 53ea a7bb
00000340: 7cd0 64bc 2842 8c3d 20df 3638 ed26 383d
00000350: 3570 843c cfa9 1e3d 37e2 a0bb 0e72 db3c
00000360: d4eb ac3b 1253 3f3d 8c49 05bc 1b80 87bc
00000370: 0268 8f3d c0d0 833c 2d84 cc3a f5a4 313c
00000380: ffcf 253d e43a 3cbb 4c8d 763c 329d 8abb
00000390: 863a 8d3c a759 263d 3e09 5a3d 509f 113c
000003a0: 8472 0b3d 7ae4 6cba d9b7 d6bc df31 ec3c
000003b0: c213 183d 88f6 ffbc 832f 4a3d c087 8ebc
000003c0: 0f45 923c 51b6 003d 4c3a 573c 54cb 8a3b
000003d0: d543 43bb c324 9a3a c785 5f3d fe7f 9ebc
000003e0: e1ae 8c3c a15d 3f3d 3fbf 91bc 03a4 babc
000003f0: 6974 143d 652f d8bb 28cb 8b3b 2d88 9f3c

fc2.bias f4 [256]
-0.0026081295 -0.030798862 -0.016926005 0.040124983 0.036385182 0.033550095 0.023293253 -0.0033556398
-0.0073132217 0.012500753 0.031095807 0.0323141 -0.015469585 -0.04687879 0.015384561 0.022229899
-0.011321396 -2.7337766e-05 0.0059691463 0.046146512 0.03722983 -0.018326988 -0.017555878 -0.0029592323
0.021825355 -0.04220702 0.03127807 0.0157293 0.016952803 -0.0034606992 -0.026735974 0.013346862
0.00397565 -0.015020914 -0.024560992 -0.019580228 -0.004819216 -0.01614692 0.035577703 0.0153520005
-0.021892961 -0.03507446 0.046413004 -0.041272912 -0.042155635 -0.023250293 0.008552437 -0.014502233
0.04434382 -0.031687044 0.007654917 0.032432348 -0.035148673 0.031704325 -0.013096759 -0.026006913
-0.044672366 -0.023908395 0.02644142 -0.041558515 -0.012466304 -0.0052547227 -0.024396403 -0.03833461
-0.027839188 -0.015333922 -0.025278242 -0.015744278 -0.035310887 -0.018199798 -0.011884965 -0.036167264
-0.032583438 -0.016982257 -0.03098249 -0.0057287067 0.00088932365 -0.014000364 0.032378323 0.0032406866
-0.01733233 0.012585964 0.031493574 -0.02315904 0.0012093106 -0.043851145 0.009595506 0.018034918
-0.038048528 -0.035230648 0.012236566 -0.014345124 0.026493121 0.017115058 0.0043622237 0.03953379
-0.052718077 -0.033301733 0.039328553 0.029040571 -0.0062339124 -0.006071293 0.008366724 -0.018918974
-0.014767643 0.028541138 0.045082383 -0.018062554 -0.040564597 0.0098003335 0.0077582826 -0.02438325
0.03374026 0.033812333 -0.028205005 -0.036505062 -0.00088953343 -0.024213333 -0.030894566 -0.007968748
-0.04363569 0.023214895 0.03884231 -0.042708088 -0.022470405 -0.032055736 0.053854555 -0.028731944
0.02818467 -0.011092246 -0.032218166 0.04550086 -0.011384577 0.017924363 -0.037218887 -0.033084232
0.027503705 0.013406452 0.023017386 -0.038889736 0.03826614 -0.008848352 -0.009363815 0.033360902
0.0075711207 -6.877966e-05 -0.024507182 -0.032811232 0.03988601 -0.036720406 0.031160198 -0.048159204
0.022812312 0.020460466 -0.034210138 -0.02922539 0.0050096554 0.013763042 -0.005865175 0.02448958
0.01242749 -0.028317066 -0.015232122 -0.011246589 0.015369758 0.03225141 -0.01123674 0.022132885
-0.01054386 0.039238054 -0.035656735 -0.019805072 0.01840701 -0.0030256547 0.022814134 0.0027338348
-0.0034060832 -0.04222397 0.0028768 0.0045966725 -0.03623598 0.027416771 -0.027491366 0.04175808
-0.023120042 -0.036915973 -0.039913412 -0.022988154 0.0020272476 0.034632962 -0.03642655 0.018501703
-0.025263319 0.019685188 -0.0037539192 -0.012933789 -0.043999102 0.01633426 0.015061506 0.002203954
0.025048895 0.0048901225 0.018513745 0.04168581 0.001850825 0.027736671 -0.025332091 0.03927386
0.042321116 -0.045765676 -0.043118022 -0.014674248 0.005050998 -0.0442359 0.035244673 -0.028420422
0.041831937 -0.036079418 0.026585156 0.0085666245 0.012796836 0.0025113567 -0.041765135 -0.049637932
0.033987522 0.009862022 -0.00095487497 0.022389177 0.010523045 0.019753568 -0.030516338 -0.012806228
0.033640213 0.035491582 -0.020919904 0.0113860145 -0.011334678 0.0077080536 -0.019266194 0.013405369
-0.013035062 0.032652214 0.034702007 -0.043566983 -0.015857104 -0.040703185 0.028772812 -0.029333059
-0.04571301 -0.027593104 -0.0037495848 0.026606176 0.039968226 0.034126326 0.030630229 -0.025189891
00000000: 27ed 2abb e54d fcbc 68a8 8abc 185a 243d
00000010: a108 153d d36b 093d 7ed1 be3c 4bea 5bbb
00000020: c0a3 efbb f5cf 4c3c a2bc fe3c ca5b 043d
00000030: 2474 7dbc f903 40bd 870f 7c3c 7a1b b63c
00000040: 607d 39bc 6853 e5b7 d498 c33b 2004 3d3d
00000050: 4e7e 183d 7b22 96bc 58d1 8fbc aeef 41bb
00000060: 16cb b23c 45e1 2cbd 6f1d 003d bcda 803c
00000070: 9be0 8a3c e6cc 62bb 6705 dbbc ccac 5a3c
00000080: 2b46 823b 481a 76bc 2234 c9bc b766 a0bc
00000090: 84ea 9dbb 8c46 84bc edb9 113d f586 7b3c
000000a0: de58 b3bc 3daa 0fbd 901b 3e3d c90d 29bd
000000b0: 63ab 2cbd 6677 bebc 851f 0c3c c69a 6dbc
000000c0: dea1 353d 46ca 01bd 19d6 fa3b c8d7 043d
000000d0: 0ef8 0fbd 65dc 013d ca93 56bc 730c d5bc
000000e0: 5ffa 36bd 8adb c3bc ad9b d83c 4339 2abd
000000f0: 783f 4cbc cf2f acbb f7da c7bc c104 1dbd
00000100: 020f e4bc 213b 7bbc 5114 cfbc 25fa 80bc
00000110: 26a2 10bd be17 95bc 28b9 42bc 2024 14bd
00000120: 3676 05bd 601e 8bbc fece fdbc e0b7 bbbb
00000130: 8021 693a c861 65bc 229f 043d b361 543b
00000140: 88fc 8dbc 5c35 4e3c 68ff 003d 07b8 bdbc
00000150: bb81 9e3a 429d 33bd 7836 1d3c f7bd 933c
00000160: c6d8 1bbd 034e 10bd e17b 483c d007 6bbc
00000170: 1a08 d93c e134 8c3c fcf0 8e3b 2fee 213d
00000180: e9ee 57bd 6667 08bd fa16 213d 7ee6 ed3c
00000190: d945 ccbb b2f1 c6bb 9514 093c f7fb 9abc
000001a0: fcf3 71bc 1bcf e93c 4ea8 383d ecf7 93bc
000001b0: 1027 26bd 9491 203c 3139 fe3b 62bf c7bc
000001c0: 3a33 0a3d cd7e 0a3d 2f0e e7bc 5586 15bd
000001d0: 942f 69ba 0a5b c6bc 9a16 fdbc 5a8f 02bc
000001e0: 56bb 32bd 2a2d be3c 1d19 1f3d adee 2ebd
000001f0: db13 b8bc e04c 03bd 9896 5c3d 415f ebbc
00000200: 89e3 e63c 40bc 35bc 32f7 03bd 1c5f 3a3d
00000210: 6086 3abc 1dd6 923c d572 18bd 5583 07bd
00000220: 734f e13c bca6 5b3c f58e bc3c d84a 1fbd
00000230: f5bc 1c3d aef8 10bc b06a 19bc 71a5 083d
00000240: 2a17 f83b cc3d 90b8 49c3 c8bc 1265 06bd
00000250: 835f 233d 2368 16bd ac43 ff3c 9642 45bd
00000260: e3e0 ba3c b59c a73c ee1f 0cbd 166a efbc
00000270: 0928 a43b 627e 613c a730 c0bb 5f9e c83c
00000280: ac9c 4b3c 31f9 e7bc 2690 79bc 9d43 38bc
00000290: 70d1 7b3c 0e1a 043d 4e1a 38bc 0650 b53c
000002a0: 27c0 2cbc 15b8 203d cc0c 12bd 3f3e a2bc
000002b0: 4cca 963c 104a 46bb b5e4 ba3c 232a 333b
000002c0: 9838 5fbb 0bf3 2cbd b288 3c3b af9f 963b
000002d0: 2e6c 14bd 2399 e03c 9335 e1bc 850a 2b3d
000002e0: 3e66 bdbc 3435 17bd 3f7c 23bd a751 bcbc
000002f0: 92db 043b 4bdb 0d3d 0234 15bd e290 973c
00000300: 05f5 cebc d542 a13c 5004 76bb 3ee8 53bc
00000310: 6738 34bd 6dcf 853c 89c4 763c 3670 103b
00000320: 5733 cd3c 523d a03b 23aa 973c bdbe 2a3d
00000330: 6297 f23a 0438 e33c 3f85 cfbc a1dd 203d
00000340: e858 2d3d ca74 3bbd 869c 30bd 426c 70bc
00000350: d882 a53b b430 35bd b85c 103d f2d1 e8bc
00000360: f757 2b3d 03c8 13bd 1dc9 d93c 075b 0c3c
00000370: d2a9 513c 9395 243b eb11 2bbd 2551 4bbd
00000380: 8036 0b3d 5194 213c 9350 7aba 8269 b73c
00000390: da68 2c3c 3cd2 a13c 66fd f9bc 37d1 51bc
000003a0: 52ca 093d 9f5f 113d 3860 abbc 688c 3a3c
000003b0: 16b5 39bc d793 fc3b 23d4 9dbc 31a2 5b3c
000003c0: 0391 55bc 54be 053d b123 0e3d 4b73 32bd
000003d0: c2e6 81bc 62b8 26bd f6b4 eb3c e24b f0bc
000003e0: 913d 3bbd ef0a e2bc 98bb 75bb 32f5 d93c
000003f0: b9b5 233d 0cc8 0b3d 3fec fa3c 085b cebc

fc3.weight f4 [128, 256]
0.04712897 -0.009851538 -0.0692175 -0.021394858 0.042040683 -0.028616102 0.030046815 -0.03057466
-0.0068880245 0.014315728 -0.02811716 0.036662634 -0.009934761 0.024619207 0.045122106 0.039012145
-0.035956092 -0.07002449 -0.009222492 0.0032596104 0.025747277 0.031961344 -0.020846784 0.044994056
0.00197335 -0.024514392 -0.03127811 0.025982061 0.037210442 -0.0034987833 -0.039659344 0.012253853
0.025913857 0.019646183 -0.025147218 0.011036632 -0.016186869 0.03294275 0.048333038 0.029366
0.038658317 0.037660893 0.026937798 -0.012740351 -0.023183161 -0.027267069 -0.04156088 -0.033389032
-0.017807158 -0.031148346 0.056865774 -0.054243665 -0.008436911 0.04102593 -0.015801564 -0.056416012
-0.01860942 -0.06698001 0.0014959375 0.016135504 0.041995853 -0.0017995273 -0.028948301 -0.067667834
0.02013275 -0.066237405 -0.06530758 -0.040512573 0.012324337 0.024310121 -0.0537709 0.015169844
0.022787377 0.02600533 -0.033210844 0.015994944 -0.0046524853 -0.0048739654 0.03619431 -0.040260997
0.029549263 0.010237174 -0.06142281 -0.013566539 0.0272998 -0.030739248 -0.01446142 0.0025917178
0.017919715 0.027319938 0.032038152 -0.0018139707 -0.02129706 0.042675387 0.06314671 0.03898247
0.034146067 -0.056387886 -0.0071616145 -0.04901398 -0.039792772 -0.014445547 0.025283622 0.052467525
0.042494193 -0.049320687 0.013823663 -0.030015595 0.044111002 -0.037154973 0.05255425 -0.030072726
-0.0261592 -0.008444246 -0.00416799 0.012578454 -0.06534945 -0.008759943 -0.05768682 0.018540125
0.03187371 -0.036260564 -0.029108737 -0.054599714 0.043111194 -0.01792027 0.01157512 0.05147381
-0.07503619 -0.02220618 0.022185514 0.022847561 0.0014170706 -0.0062938733 0.03913995 -0.044897437
-0.017793939 0.05942078 0.02551327 -0.052407414 -0.0074578193 0.027946977 0.048883267 -0.0016574936
-0.01591363 0.050372332 -0.010024937 -0.0023225811 0.029748753 -0.010194801 0.03553108 -0.05521273
0.030976666 0.04876928 -0.047078792 -0.05419722 -0.0017402653 -0.015333963 -0.06736919 0.012062648
-0.019712307 -0.020629697 -0.055408202 -0.047234308 0.028189551 -0.031929355 0.048947375 0.03399154
-0.007058715 -0.03367956 -0.0004066825 -0.06253415 -0.024022989 0.02381622 -0.06959248 0.004954691
-0.00299452 -0.027269453 -0.036332145 0.007059132 -0.057041682 -0.037565053 -0.033016637 0.025064467
-0.03643334 0.0006426275 -0.05101255 0.03738329 0.03059416 0.015320774 -0.052466977 0.0319312
0.07487918 -0.062098484 -0.013784327 -0.010070391 -0.045124013 -0.034532465 0.01504984 0.047757033
0.018883364 -0.055253863 -0.047544226 -0.0029951707 0.042071976 -0.031864636 0.020773323 -0.01218857
0.03428766 -0.0008263432 0.0032706335 -0.006094719 0.0105543295 -0.061373424 -0.022735747 -0.04627538
-0.013857508 -0.03883873 0.04700303 0.009844118 0.034169346 -0.037537783 0.06033238 -0.015580487
-0.058088653 -0.058729768 0.059065647 -0.037583143 0.050179757 0.00552128 0.050887108 0.025339188
-0.0013105726 -0.03629767 0.0052790036 -0.028384786 -0.05937537 -0.026802395 -0.042869993 -0.061140124
-0.03441318 -0.061744187 0.02432134 -0.026299044 0.049626037 -0.0104587 0.028051022 0.015325971
-0.021037987 -0.030156089 0.06322516 -0.018488038 -0.032500178 -0.050887823 -0.045412637 -0.03340982
00000000: 4f0a 413d 5868 21bc e8c1 8dbd 4544 afbc
00000010: da32 2c3d 516c eabc bd24 f63c b677 fabc
00000020: f0b4 e1bb 848c 6a3c f555 e6bc 8f2b 163d
00000030: 68c5 22bc 38ae c93c f5d1 383d 33cb 1f3d
00000040: b246 13bd 0069 8fbd ef19 17bc 309f 553b
00000050: f4eb d23c e6e9 023d e0c6 aabc b04b 383d
00000060: 5253 013b 68d2 c8bc 7a1d 00bd 55d8 d43c
00000070: fa69 183d d84b 65bb d671 22bd 62c4 483c
00000080: 4c49 d43c 08f1 a03c 8a01 cebc fdd2 343c
00000090: 539a 84bc faee 063d ddf8 453d f790 f03c
000000a0: 2f58 1e3d 4f42 1a3d a8ac dc3c e8bc 50bc
000000b0: 9dea bdbc 305f dfbc be3b 2abd f0c2 08bd
000000c0: 51e0 91bc d12a ffbc 16ec 683d 9b2e 5ebd
000000d0: f83a 0abc ce0a 283d 4872 81bc 7a14 67bd
000000e0: c872 98bc d12c 89bd 5513 c43a 9b2e 843c
000000f0: d803 2c3d 1ede ebba fd24 edbc 6f95 8abd
00000100: 70ed a43c 7aa7 87bd fbbf 85bd 83f0 25bd
00000110: 04ec 493c 0526 c73c e03e 5cbd f08a 783c
00000120: 98ac ba3c 2109 d53c 1808 08bd d407 833c
00000130: e073 98bb c9b5 9fbb 7c40 143d b7e8 24bd
00000140: 4c11 f23c d2b9 273c 7c96 7bbd 3046 5ebc
00000150: d5a3 df3c e0d0 fbbc 97ef 6cbc cfd9 293b
00000160: 5ecc 923c 10ce df3c 703a 033d c2c2 edba
00000170: 2c77 aebc 63cc 2e3d 1053 813d 15ac 1f3d
00000180: bfdc 0b3d fcf6 66bd faab eabb e2c2 48bd
00000190: bffd 22bd 04ad 6cbc 991f cf3c 30e8 563d
000001a0: 640e 2e3d 7d04 4abd a57c 623c 44e3 f5bc
000001b0: bdad 343d d02f 18bd 2043 573d 145b f6bc
000001c0: d24b d6bc bc59 0abc a293 88bb dc15 4e3c
000001d0: efd5 85bd dd85 0fbc 0449 6cbd 76e1 973c
000001e0: 028e 023d f585 14bd 7275 eebc f3a3 5fbd
000001f0: 5d95 303d 88cd 92bc 92a5 3d3c 34d6 523d
00000200: 93ac 99bd bce9 b5bc 65be b53c cf2a bb3c
00000210: 00bd b93a d63c cebb 3651 203d 60e6 37bd
00000220: 98c4 91bc 3463 733d 3501 d13c 28a9 56bd
00000230: b960 f4bb 0ff1 e43c d239 483d 4240 d9ba
00000240: 4d5d 82bc 3853 4e3d a23f 24bc 7236 18bb
00000250: a8b3 f33c 1808 27bc 0a89 113d be26 62bd
00000260: c7c2 fd3c 4cc2 473d b1d5 40bd e7fd 5dbd
00000270: 9d19 e4ba 4d3b 7bbc dcf8 89bd 6aa2 453c
00000280: b47b a1bc 9cff a8bc b6f3 62bd c378 41bd
00000290: c6ed e63c 5bc8 02bd 0b7d 483d b73a 0b3d
000002a0: cb4c e7bb 94f3 09bd 0038 d5b9 e811 80bd
000002b0: dccb c4bc 3c1a c33c 8186 8ebd f65a a23b
000002c0: b53f 44bb 3064 dfbc 04d1 14bd 4b50 e73b
000002d0: 8aa4 69bd d0dd 19bd 743c 07bd ff53 cd3c
000002e0: 203b 15bd 0076 283a 89f2 50bd 381f 193d
000002f0: 9ba0 fa3c fc03 7b3c 9de7 56bd 4aca 023d
00000300: 415a 993d fb5a 7ebd a8d7 61bc 48fe 24bc
00000310: f5d3 38bd ea71 0dbd 9b93 763c e19c 433d
00000320: 49b1 9a3c e051 62bd bcbd 42bd a04a 44bb
00000330: aa53 2c3d 7e84 02bd d12c aa3c 91b2 47bc
00000340: 3871 0c3d f49e 58ba 2058 563b 35b6 c7bb
00000350: 11ec 2c3c b362 7bbd 5140 babc 418b 3dbd
00000360: 9a0a 63bc 5c15 1fbd 4086 403d 3949 213c
00000370: 28f5 0b3d 38c1 19bd 161f 773d 4d45 7fbc
00000380: 5eee 6dbd a08e 70bd d2ee 713d c8f0 19bd
00000390: 4a89 4d3d dbeb b43b 006f 503d 2194 cf3c
000003a0: 85c7 abba deac 14bd 7efb ac3b 3687 e8bc
000003b0: 9733 73bd b290 dbbc 7298 2fbd 116e 7abd
000003c0: d6f4 0cbd 79e7 7cbd 8c3d c73c 1871 d7bc
000003d0: ac44 4b3d f85a 2bbc 42cb e53c c819 7b3c
000003e0: db57 acbc e709 f7bc 317c 813d 3a74 97bc
000003f0: e81e 05bd c06f 50bd 9a02 3abd bcd8 08bd

fc3.bias f4 [128]
0.011360704 0.064854026 -0.032436877 0.055679798 0.0388741 0.023326658 -0.000828255 -0.05282961
0.034055747 -0.04339584 -0.025132565 -0.050167955 0.019554233 -0.021785531 -0.040717427 0.0023710625
-0.029807152 -0.04636475 -0.04319298 -0.047703426 -0.05996167 0.005699311 0.05067497 -0.0017650125
-0.018769091 -0.0409407 -0.013277979 -0.054358285 -0.04755749 0.011852322 -0.055128485 -0.05099726
0.009295295 -0.061081268 -0.05055572 -0.008955432 0.015484561 -0.0047062673 0.05226803 0.05785049
-0.049843702 0.047303494 -0.03350364 -0.013749264 0.017056694 0.017399827 0.026736569 -0.027543925
0.0059751617 0.056343127 -0.012379958 -0.072144136 -0.05284196 0.04069053 -0.05344136 -0.056834612
0.044382874 -0.02972885 -0.01825771 0.027844837 0.027332058 0.023982896 0.025873777 0.04788484
-0.023450986 0.051286396 0.023412254 -0.06316048 -0.022578847 0.04806171 0.02116131 0.026338132
0.06243163 -0.036014095 -0.048668742 0.042299185 0.02462081 0.05990133 0.026931623 0.0016000131
-0.025542734 1.2900924e-05 0.016595986 -0.007213233 0.07614128 0.05383521 0.047809128 -0.018169142
0.045019716 -0.00071454066 -0.03139673 -0.023375414 -0.03957399 0.027974984 0.025863796 0.023373691
-0.00060953276 0.069138505 -0.0042526266 0.020460092 -0.03865011 0.022337427 0.043755937 -0.011381867
0.035762724 -0.080470145 -0.037377585 0.0520129 0.017976189 -0.04359316 0.0141434735 -0.06678547
0.032413226 0.027498495 0.019366596 0.04976912 -0.012482832 -0.021700727 0.016898746 -0.013161624
0.046587635 0.040678132 -0.05403737 0.03905618 -0.021536775 -0.04899878 0.05036601 -0.04176732
00000000: 3f22 3a3c 30d2 843d 88dc 04bd 8010 643d
00000010: 733a 1f3d 8c17 bf3c 411f 59ba dc63 58bd
00000020: 0a7e 0b3d d6bf 31bd cfe2 cdbc ea7c 4dbd
00000030: 3330 a03c 9277 b2bc 51c7 26bd d463 1b3b
00000040: 212e f4bc f7e8 3dbd 1feb 30bd ab64 43bd
00000050: 5e9a 75bd 49c1 ba3b 8f90 4f3d fe57 e7ba
00000060: a3c1 99bc 6fb1 27bd e18b 59bc cba6 5ebd
00000070: a5cb 42bd 3e30 423c 68ce 61bd 81e2 50bd
00000080: 4b4b 183c 5a30 7abd 8413 4fbd ceb9 12bc
00000090: f5b2 7d3c 0837 9abb 0017 563d a3f4 6c3d
000000a0: e928 4cbd 4fc1 413d 1d3b 09bd 9844 61bc
000000b0: 7bba 8b3c 158a 8e3c a606 db3c cca3 e1bc
000000c0: 4acb c33b 0dc8 663d 4fd5 4abc 4ec0 93bd
000000d0: d070 58bd 1dab 263d 54e5 5abd 69cb 68bd
000000e0: d1ca 353d eb89 f3bc 3191 95bc db1a e43c
000000f0: 7be7 df3c c777 c43c 3ef5 d33c e522 443d
00000100: 481c c0bc af11 523d 0ecb bf3c 485a 81bd
00000110: 46f7 b8bc 5bdc 443d 7c5a ad3c 11c3 d73c
00000120: 4fb8 7f3d 8483 13bd e058 47bd e941 2d3d
00000130: 95b1 c93c 195b 753d b59f dc3c 88b7 d13a
00000140: ff3e d1bc 0c71 5837 4ef4 873c fc5c ecbb
00000150: f6ef 9b3d 4f82 5c3d 81d3 433d 74d7 94bc
00000160: 9866 383d 0350 3bba dc99 00bd cc7d bfbc
00000170: 5618 22bd cb2b e53c 50e0 d33c 2f7a bf3c
00000180: 0dc9 1fba 7d98 8d3d 9e59 8bbb ec9b a73c
00000190: 944f 1ebd fbfc b63c 6d39 333d 037b 3abc
000001a0: ef7b 123d 88cd a4bd 3d19 19bd 7b0b 553d
000001b0: cd42 933c be8e 32bd 07ba 673c d2c6 88bd
000001c0: bbc3 043d 8644 e13c b2a6 9e3c b4da 4b3d
000001d0: cb84 4cbc b9c5 b1bc 3d6f 8a3c daa3 57bc
000001e0: add2 3e3d 1d9e 263d 4a56 5dbd 5ff9 1f3d
000001f0: e46d b0bc f2b2 48bd 974c 4e3d 3614 2bbd

value_fc.weight f4 [1, 128]
-0.030655373 -0.07344486 -0.06426945 -0.017265465 -0.07065978 0.03139916 -0.048645504 -0.000652263
0.03788697 -0.039791293 0.0704425 0.052000266 0.051628478 -0.06889314 -0.009985263 0.07013652
0.030117383 0.024354149 -0.017315209 -0.02027109 0.06725212 0.0604286 0.03766306 -0.07828455
0.075778015 0.019146582 -0.035832822 0.03984478 0.026356224 -0.00300664 0.01791767 0.051630132
0.012387343 0.0025971495 0.010992335 -0.004485142 0.0057021966 0.060018834 -0.08003805 -0.0057944013
-0.0036172047 0.06471946 0.0386597 -0.085567474 0.009211527 -0.019595517 0.043257784 0.030367767
-0.029401988 -0.030246682 0.041765347 -0.002632516 -0.02388983 0.014675557 -0.008971936 -0.045583837
-0.021978663 0.020104693 0.0359052 0.028027648 0.0026053307 -0.045542825 -0.0072237444 0.06305962
0.030653922 -0.033778183 -0.028762197 0.0037804067 -0.07197264 -0.045820493 0.068700664 -0.053339396
0.002046649 -0.020541038 0.07452607 0.04127254 -0.07133522 -0.007125 -0.007144995 -0.0017106885
-0.07940643 -0.027723504 -0.039073054 -0.065518215 -0.09077724 -0.0770814 -0.010864921 0.040152587
-0.0260306 0.03880723 -0.060344953 0.0697284 -0.03422127 0.052684285 -0.015258028 0.055068824
0.003597341 -0.025810322 0.034387995 0.00014566712 -0.03518565 -0.06541557 0.011611544 0.068985395
-0.08423314 0.06729015 0.076984115 -0.0326241 0.07567879 0.02565412 -0.07637367 0.01111698
-0.03343206 -0.007390119 -0.0072070817 -0.01480919 -0.012301119 0.07244518 0.019782541 0.03139467
0.043471392 0.046464726 -0.04160089 0.0012036758 0.009444411 -0.04907607 -0.051319756 -0.043944735
00000000: fa20 fbbc 426a 96bd b49f 83bd 4e70 8dbc
00000010: 13b6 90bd 689c 003d 8240 47bd a1fc 2aba
00000020: 5e2f 1b3d 32fc 22bd 2844 903d 3bfe 543d
00000030: 6278 533d d917 8dbd 3b99 23bc bca3 8f3d
00000040: bbb8 f63c 5a82 c73c a0d8 8dbc 8f0f a6bc
00000050: 7bbb 893d fb83 773d 9544 1a3d a653 a0bd
00000060: 8131 9b3d 4bd9 9c3c 70c5 12bd 4834 233d
00000070: 02e9 d73c 0c0b 45bb 14c8 923c 1e7a 533d
00000080: 48f4 4a3c f034 2a3b 3219 343c 19f8 92bb
00000090: 7ed9 ba3b 4fd6 753d fdea a3bd f6de bdbb
000000a0: a00e 6dbb a38b 843d a259 1e3d 003e afbd
000000b0: f2eb 163c c786 a0bc 132f 313d d3c5 f83c
000000c0: 70dc f0bc e4c7 f7bc 2412 2b3d 4a86 2cbb
000000d0: 9bb4 c3bc bf71 703c 07ff 12bc 1eb6 3abd
000000e0: 990c b4bc 99b2 a43c 5511 133d 3d9a e53c
000000f0: 32be 2a3b 1d8b 3abd 29b5 ecbb 6725 813d
00000100: ef1d fb3c fe5a 0abd b39e ebbc b3c0 773b
00000110: 6466 93bd 45ae 3bbd efb2 8c3d 697a 5abd
00000120: 1321 063b ae45 a8bc 20a1 983d 650d 293d
00000130: 3318 92bd d578 e9bb 9020 eabb 2e39 e0ba
00000140: d79f a2bd 671c e3bc 110b 20bd 6a2e 86bd
00000150: 6be9 b9bd dadc 9dbd c802 32bc 0a77 243d
00000160: 203e d5bc 54f4 1e3d 452c 77bd c3cd 8e3d
00000170: 9a2b 0cbd 7acb 573d cffc 79bc d98f 613d
00000180: 5ec1 6b3b 2b70 d3bc 6dda 0c3d 38be 1839
00000190: d41e 10bd 99f8 85bd 583e 3e3c 3748 8d3d
000001a0: 6d82 acbd 6bcf 893d d9a9 9d3d d9a0 05bd
000001b0: 7bfd 9a3d 9728 d23c cc69 9cbd fe23 363c
000001c0: 0ef0 08bd d028 f2bb 6229 ecbb 3fa2 72bc
000001d0: a28a 49bc 235e 943d ff0e a23c b397 003d
000001e0: 0f0f 323d cc51 3e3d b265 2abd a8c4 9d3a
000001f0: bbbc 1a3c fd03 49bd aa34 52bd 65ff 33bd

advantage_fc.weight f4 [3, 128]
0.033611123 -0.017445127 -0.014344712 -0.051846128 -0.09756978 0.047252603 -0.07026402 0.04041855
-0.050179284 0.07017937 0.07918343 0.03394767 0.033988327 0.0117852595 -0.0069811153 0.04893632
-0.036877207 0.031298008 -0.078529716 0.04761037 -0.0661802 0.031937886 0.015780536 0.015333571
0.051362716 -0.048331205 -8.628878e-06 0.050144833 -0.042857315 0.04911626 -0.05014916 -0.008796182
0.05089514 -0.008436488 -0.067691736 0.07757677 -0.078760214 -0.021545189 0.0081451135 -0.08085913
-0.07071389 -0.08460052 -0.10287931 0.0049109785 -0.060283802 0.06407568 0.05125447 -0.034294236
-0.037814043 0.04729791 0.024037588 0.021654205 0.0072394894 0.0049627814 -0.05891217 0.039864462
-0.05573196 -0.07320117 -0.042026576 -0.07213323 -0.06467834 -0.034737833 -0.05037471 0.036883533
-0.053342205 -0.08604621 -0.045597736 0.033435654 -0.04555467 0.008618143 -0.051354557 0.018676005
-0.07138628 -0.012161445 -0.055042308 0.003032606 0.09415212 0.046432886 -0.045062624 0.009370701
0.013983265 -0.04217986 0.0032547675 -0.024360707 0.078613795 -0.05161361 0.006056063 -0.07674408
0.07234965 0.07309699 -0.013792237 -0.051705293 0.08752889 0.07299765 0.054680057 -0.030428765
-0.03897235 0.0822504 -0.00092744746 0.035579033 0.05312569 -0.08537825 -0.05666817 0.064046144
-0.014686832 -0.06943241 -0.047433075 0.043497004 -0.01532624 -0.040515523 0.013426941 0.036902055
-0.07781454 -0.044070076 -0.044801913 0.083001025 0.018133253 -0.06536331 -0.07073783 -0.051701393
0.058422025 -0.048069365 -0.02188201 -0.081010304 0.08724767 0.034967914 -0.037152924 0.046620872
-0.07062158 0.05604249 -0.046919107 -0.025322434 -0.0058112447 -0.03769711 0.011699463 -0.066547565
-0.08281791 -0.06809508 -0.07701947 -0.044450678 -0.03648478 -0.068475455 -0.0030622715 0.03030726
-0.028033132 0.08330788 0.056974124 -0.05531448 0.026586622 0.038859673 0.029726941 -0.053046227
0.047704943 -0.052931752 -0.036028787 0.017728819 0.026917122 -0.06347778 -0.085835904 0.0035568587
0.07031249 -0.068991445 -0.027204549 -0.051054772 0.0009392967 0.012157087 -0.032342087 -0.06549726
-0.015824359 0.07667726 0.09853024 -0.007028784 0.028448984 -0.03939176 -0.04532506 -0.07845714
0.089198045 0.054038886 -0.06840201 0.01177378 -0.034496494 0.01956365 0.02338751 0.060870923
0.018731682 0.062701315 -0.030187335 -0.017623715 0.077839606 -0.0671587 -0.07454117 -0.013289044
0.06924409 0.049369253 0.044795636 -0.0059275655 -0.029152261 0.022560237 0.04982655 0.011343127
-0.08684358 0.011695338 0.0014525683 0.0047898404 0.048401855 0.082915984 -0.034420412 0.01760741
0.0053371377 0.03621175 -0.07165701 -0.075157344 -0.054308426 -0.04805547 0.029722136 0.07721457
-0.01921118 -0.006503302 0.02864022 0.06563581 -0.0073091765 0.043537587 -0.038869485 0.02429424
0.05465365 -0.051089853 0.020896496 0.083018996 0.062380392 0.054924272 -0.07082682 -0.016431896
0.039225236 0.03624724 -0.062372528 -0.06103443 0.07995894 -0.026455186 0.07210356 -0.0314437
-0.044635832 0.017406456 -0.0067744358 0.010401087 0.024064707 -0.03481457 -0.0019555436 0.035930708
-0.06429173 -0.04998617 -0.03982036 0.07026255 0.020994896 -0.061957028 -0.020752389 -0.08671999
00000000: d1ab 093d 15e9 8ebc 1506 6bbc 9b5c 54bd
00000010: aad2 c7bd f28b 413d 95e6 8fbd ec8d 253d
00000020: cb88 4dbd 34ba 8f3d ec2a a23d b60c 0b3d
00000030: 5837 0b3d f616 413c d7c1 e4bb 7371 483d
00000040: 8e0c 17bd 5732 003d 30d4 a0bd 1703 433d
00000050: 7c89 87bd 4dd1 023d 2f46 813c a839 7b3c
00000060: b661 523d f1f6 45bd c0c4 10b7 ab64 4d3d
00000070: 278b 2fbd 222e 493d 3569 4dbd dd1d 10bc
00000080: 6c77 503d 3239 0abc f7a1 8abd 92e0 9e3d
00000090: 094d a1bd 897f b0bc 1573 053c 7999 a5bd
000000a0: 72d2 90bd 0a43 adbd 63b2 d2bd 46ec a03b
000000b0: 26ec 76bd 1c3a 833d 35f0 513d 1d78 0cbd
000000c0: e6e2 1abd 74bb 413d 7aea c43c 2964 b13c
000000d0: 3d39 ed3b d49e a23b e34d 71bd eb48 233d
000000e0: 3247 64bd 7fea 95bd 0f24 2cbd 96ba 93bd
000000f0: 1476 84bd 4249 0ebd b655 4ebd 3013 173d
00000100: 5b7d 5abd ff38 b0bd b1c4 3abd d3f3 083d
00000110: 8997 3abd 1d33 0d3c 2859 52bd 6cfe 983c
00000120: f832 92bd cc40 47bc 0b74 61bd b0be 463b
00000130: d4d2 c03d 6930 3e3d 9693 38bd 9287 193c
00000140: 101a 653c cac4 2cbd f04d 553b 1b90 c7bc
00000150: 4500 a13d cb68 53bd f071 c63b 002c 9dbd
00000160: 0e2c 943d e0b3 953d d6f8 61bc eec8 53bd
00000170: 5942 b33d cb7f 953d 32f8 5f3d bf45 f9bc
00000180: 79a1 1fbd e672 a83d f21f 73ba 52bb 113d
00000190: 539a 593d cbda aebd e21c 68bd a02a 833d
000001a0: 0aa1 70bc 9432 8ebd 2f49 42bd ea29 323d
000001b0: e91a 7bbc 9bf3 25bd acfc 5b3c 9c26 173d
000001c0: 3b5d 9fbd d382 34bd 3682 37bd 71fc a93d
000001d0: 308c 943c 33dd 85bd ffde 90bd d7c4 53bd
000001e0: ef4b 6f3d 62e4 44bd e741 b3bc bbe8 a5bd
000001f0: e8ae b23d 843a 0f3d aa2d 18bd 87f5 3e3d
00000200: 0ca2 90bd cf8c 653d 402e 40bd fe70 cfbc
00000210: 416c bebb 4968 1abd 1baf 3f3c 174a 88bd
00000220: 709c a9bd 6f75 8bbd 62bc 9dbd ea11 36bd
00000230: 1171 15bd dc3c 8cbd 64b0 48bb ee46 f83c
00000240: bda5 e5bc 529d aa3d b35d 693d 7091 62bd
00000250: 30cc d93c 522b 1f3d ea85 f33c 0047 59bd
00000260: 4266 433d f7ce 58bd ec92 13bd 073c 913c
00000270: 4c81 dc3c a300 82bd bcca afbd 301a 693b
00000280: ffff 8f3d 634b 8dbd 13dc debc cf1e 51bd
00000290: 223b 763a 852e 473c 2379 04bd 6d23 86bd
000002a0: 16a2 81bc f808 9d3d 39ca c93d b751 e6bb
000002b0: d80d e93c 4159 21bd c5a6 39bd 23ae a0bd
000002c0: 77ad b63d e157 5d3d 5a16 8cbd d0e6 403c
000002d0: 324c 0dbd f343 a03c 2a97 bf3c ca53 793d
000002e0: 2f73 993c 8c69 803d 6e4b f7bc 9c5f 90bc
000002f0: 5f6a 9f3d 808a 89bd 0aa9 98bd 4aba 59bc
00000300: d8cf 8d3d 6a37 4a3d a17b 373d 063c c2bb
00000310: b9d0 eebc 3fd0 b83c ed16 4c3d 86d8 393c
00000320: 0cdb b1bd ce9d 3f3c 1b64 be3a 18f4 9c3b
00000330: 0641 463d dbcf a93d 6bfc 0cbd 6a3d 903c
00000340: 28e3 ae3b c652 143d e9c0 92bd 18ec 99bd
00000350: 8372 5ebd d0d5 44bd d67b f33c ac22 9e3d
00000360: c460 9dbc a719 d5bb e59e ea3c 116c 863d
00000370: d181 efbb 7854 323d 9c35 1fbd b704 c73c
00000380: 81dc 5f3d 9843 51bd 212f ab3c dd05 aa3d
00000390: 9582 7f3d 46f8 603d a70d 91bd 2f9c 86bc
000003a0: a4aa 203d fc77 143d 567a 7fbd 3dff 79bd
000003b0: 83c1 a33d 8cb8 d8bc 08ab 933d 1ccb 00bd
000003c0: 10d4 36bd fc97 8e3c 16fc ddbb 5269 2a3c
000003d0: 5923 c53c b999 0ebd 9428 00bb 142c 133d
000003e0: 62ab 83bd 4cbe 4cbd ac1a 23bd d0e5 8f3d
000003f0: 7dfd ab3c a7c6 7dbd ea00 aabc 409a b1bd

advantage_fc.bias f4 [3]
0.029636579 -0.005251198 0.02309529
00000000: 69c8 f23c 3e12 acbb 5532 bd3c
